attack_models/mobilenetv2_cifar10/attack_model_61.pt (torch, 737740 bytes, 25 tensors)

fc1.weight f4 [512, 10]
-6.26398 0.1584178 -4.729444 -4.58602 -1.9097507 2.0168452 0.79109836 0.63693196
-4.742243 0.9006096 -0.074822016 0.59645635 0.5775348 -3.2368405 -2.237944 0.15226181
0.36231658 -0.86899406 -0.6913769 0.93475527 0.83885676 -7.417876 -3.7097185 -5.3458805
-5.4190507 0.995791 0.66203105 -1.63499 -3.930034 1.3655627 -0.15061325 -1.0108156
-2.7849042 0.81875134 -2.386594 -1.2121593 0.7985513 0.052939426 0.42544734 0.30300322
0.6992626 -9.443503 -6.2863603 0.38025266 -9.29519 0.689395 0.48289195 0.7880779
-4.5813437 0.4521463 0.653901 -1.7839506 -6.3281484 -7.365366 1.7287008 1.1079261
-0.21201955 -3.6019752 0.69052166 -0.63943505 0.13306376 -2.1200802 -1.2968501 0.21758513
-0.92307204 -0.22653072 0.50233406 -0.17374155 0.5772159 -0.12748106 -7.7806234 -5.8835263
0.5136171 -7.8786182 1.0003799 0.57450193 0.5787671 -3.6225324 1.5162352 1.3509859
0.778521 -2.8958583 -3.05337 -3.4880297 -4.185994 0.7526309 0.765104 0.8746215
0.34901795 -1.1378161 -5.2686944 0.47650346 0.8113783 -8.532142 0.9521994 -7.3247433
-5.4390416 0.24010764 -3.3593764 1.0349556 -2.8877442 -3.0909338 0.39344552 0.27871037
1.4418865 -0.91018784 -0.62710524 -0.48172453 -2.876689 1.5099841 0.18704978 -7.683765
-7.0019617 -7.028352 -8.550272 0.8939329 0.5858947 0.42577243 0.97066134 0.6084443
0.87025166 -7.604618 0.9380256 -7.0391736 -8.432063 0.92675036 0.78659433 -2.0543454
-4.295554 0.48540896 -6.396745 0.5543028 0.99931514 0.980899 -7.0278573 -9.259544
-4.3831496 0.977008 0.38057622 0.39265555 0.37912124 0.42793322 -0.7572537 0.4212009
-0.23522778 -0.99713254 0.40249455 0.04288408 0.21074189 0.25886777 -4.281358 -0.39600453
0.563141 -6.2597103 0.82795775 -0.8938129 -4.7263446 1.2301425 1.4850909 -2.9718795
-5.5375285 -5.6172915 1.4306244 -8.076121 0.13327208 0.374213 -5.4845996 -2.0488274
0.025975069 1.3438296 -3.3767047 0.55424637 1.0829455 0.53822 -0.3205245 -4.363616
-3.3240936 -2.1593392 -0.46565583 0.7615597 0.6077697 -1.7020513 1.1209177 -7.050419
-8.474651 -6.383948 1.0492942 0.843003 -3.9046803 1.164521 -1.9322886 -0.2052687
-0.5089639 -4.2687197 -6.054127 0.6976336 1.2342542 -0.08625688 0.79949427 0.7801954
-5.794583 1.0375531 0.3614257 -3.5973945 -1.6462252 -2.6361504 -6.3968215 0.8372831
1.1273127 -6.078358 1.2947655 0.9273455 -4.866047 1.3262653 -1.6580855 -6.7201085
-0.032961648 -6.2319508 0.79820085 -2.4543324 -0.8777221 0.06378823 0.11545834 0.08986022
-0.5767277 0.06142083 0.17169805 -0.09598382 0.15791549 0.31209332 0.06935912 -1.8636663
0.35883605 -2.4277704 0.4751637 -1.8400013 -0.047479395 0.43018433 0.15458658 0.12693594
0.5347156 -1.9174157 -7.276608 -9.340164 -7.985201 1.1324755 0.92925936 -2.4592102
0.911089 0.30869249 0.33855644 -0.5566947 0.057293873 0.3416975 0.31316555 -0.0071591884
00000000: 8672 c8c0 4738 223e 9b57 97c0 adc0 92c0
00000010: b672 f4bf fe13 0140 6c85 4a3f f90d 233f
00000020: 74c0 97c0 5a8e 663f 493c 99bd 5db1 183f
00000030: 52d9 133f 6528 4fc0 793a 0fc0 85ea 1b3e
00000040: 8f81 b93e 6576 5ebf 14fe 30bf 1f4c 6f3f
00000050: 51bf 563f 3d5f edc0 076c 6dc0 7411 abc0
00000060: dd68 adc0 29ec 7e3f de7a 293f 5a47 d1bf
00000070: ad85 7bc0 c2ca ae3f 5c3a 1abe 6862 81bf
00000080: df3b 32c0 b099 513f f5bd 18c0 0928 9bbf
00000090: dc6d 4c3f 03d7 583d 3cd4 d93e 3d23 9b3e
000000a0: e002 333f 9718 17c1 dd29 c9c0 7ab0 c23e
000000b0: 19b9 14c1 317c 303f 9d3d f73e 79bf 493f
000000c0: 5e9a 92c0 b87f e73e 0e66 273f 7e58 e4bf
000000d0: 3180 cac0 14b1 ebc0 1146 dd3f 86d0 8d3f
000000e0: a71b 59be c386 66c0 07c6 303f 04b2 23bf
000000f0: de41 083e 65af 07c0 2fff a5bf a3ce 5e3e
00000100: 734e 6cbf abf7 67be f798 003f 4ee9 31be
00000110: 6cc4 133f 658a 02be defa f8c0 d945 bcc0
00000120: 697c 033f a41d fcc0 730c 803f 8f12 133f
00000130: 152a 143f 92d7 67c0 ff13 c23f 1bed ac3f
00000140: 274d 473f be55 39c0 6a6a 43c0 e13b 5fc0
00000150: aaf3 85c0 6bac 403f dbdd 433f 32e7 5f3f
00000160: 7bb2 b23e f5a3 91bf 2599 a8c0 43f8 f33e
00000170: 7db6 4f3f a783 08c1 57c3 733f 4c64 eac0
00000180: a10c aec0 c7de 753e 0600 57c0 6d79 843f
00000190: cdd0 38c0 dcd1 45c0 b171 c93e 20b3 8e3e
000001a0: bd8f b83f 1202 69bf f889 20bf 99a4 f6be
000001b0: ac1b 38c0 2947 c13f fa89 3f3e 67e1 f5c0
000001c0: 1210 e0c0 42e8 e0c0 eacd 08c1 c9d8 643f
000001d0: 32fd 153f d8fe d93e 437d 783f 01c3 1b3f
000001e0: d0c8 5e3f 0859 f3c0 7222 703f e940 e1c0
000001f0: bbe9 06c1 833f 6d3f 3f5e 493f 657a 03c0
00000200: 2e75 89c0 8687 f83e 23b2 ccc0 cae6 0d3f
00000210: 1ed3 7f3f 321c 7b3f 35e4 e0c0 1827 14c1
00000220: c342 8cc0 321d 7a3f e3da c23e 260a c93e
00000230: 2e1c c23e 101a db3e 61db 41bf a5a7 d73e
00000240: 8ddf 70be 1444 7fbf c413 ce3e 38a7 2f3d
00000250: b9cc 573e 518a 843e e200 89c0 1bc1 cabe
00000260: 022a 103f 8c4f c8c0 0af5 533f ecd0 64bf
00000270: 373e 97c0 4f75 9d3f 7517 be3f 4633 3ec0
00000280: 6f33 b1c0 dac0 b3c0 b31e b73f cb37 01c1
00000290: 7a78 083e d998 bf3e d781 afc0 fd1f 03c0
000002a0: abc9 d43c 9c02 ac3f ee1b 58c0 17e3 0d3f
000002b0: f59d 8a3f c9c8 093f ca1b a4be bea2 8bc0
000002c0: f3bd 54c0 9d32 0ac0 716a eebe 94f5 423f
000002d0: cc96 1b3f d1dc d9bf 3b7a 8f3f 089d e1c0
000002e0: 2c98 07c1 4d49 ccc0 464f 863f 0bcf 573f
000002f0: 48e6 79c0 060f 953f 3c55 f7bf f531 52be
00000300: 754b 02bf 5a99 88c0 69bb c1c0 1e98 323f
00000310: 0bfc 9d3f 72a7 b0bd a8ab 4c3f e3ba 473f
00000320: 396d b9c0 8ace 843f ca0c b93e b63b 66c0
00000330: 82b7 d2bf b0b6 28c0 c3b2 ccc0 2f58 563f
00000340: c84b 903f e981 c2c0 e0ba a53f 8466 6d3f
00000350: a8b6 9bc0 10c3 a93f 253c d4bf 210b d7c0
00000360: cb02 07bd 246c c7c0 e456 4c3f c813 1dc0
00000370: 65b2 60bf 67a3 823d 6c75 ec3d a308 b83d
00000380: 6da4 13bf 6994 7b3d 9dd1 2f3e 2a93 c4bd
00000390: 99b4 213e b2ca 9f3e 280c 8e3d 9e8c eebf
000003a0: 5cb9 b73e 9760 1bc0 a848 f33e 2a85 ebbf
000003b0: c179 42bd 1f41 dc3e f24b 1e3e 7ffb 013e
000003c0: 1fe3 083f e16d f5bf f9d9 e8c0 5071 15c1
000003d0: c486 ffc0 f5f4 903f f1e3 6d3f b363 1dc0
000003e0: 213d 693f f10c 9e3e 4557 ad3e 8b83 0ebf
000003f0: fbac 6a3d faf2 ae3e 3c57 a03e a097 eabb

fc1.bias f4 [512]
0.24074432 -0.26132667 0.0014902492 0.06370223 -0.046557408 0.1191883 -0.098767735 -0.0033449875
0.2857265 0.2931326 -0.21139728 -0.16154005 -0.2924442 -0.16411288 -0.22286318 -0.04439713
-0.20423354 -0.2252043 -0.15443416 -0.03233601 0.032336786 0.006291309 -0.13387422 0.16970597
0.3051144 -0.20857726 -0.09305992 -0.11412805 -0.2238865 -0.10781592 -1.6087133e-05 -0.05868009
-0.20500381 0.13107 0.04274053 0.06702379 -0.23759776 -0.146886 0.033467278 0.17572127
0.086658135 -0.08640908 -0.26885414 0.29945463 0.13087413 -0.20522204 0.12298264 -0.108382754
0.24428734 -0.23423754 0.19919737 0.22636367 0.17421363 0.20642607 -0.07662308 -0.19136728
0.24412923 -0.17590225 -0.23568499 -0.08138611 0.14527085 -0.00049558876 0.22731449 0.12814938
-0.12445086 0.2081575 -0.20025335 0.038111504 -0.21510045 0.14657353 0.30285487 -0.058983862
-0.06580142 0.21698068 0.03724131 0.24688202 -0.25266382 0.30057186 -0.07097809 -0.30011946
0.19708847 -0.056887932 0.27417457 -0.04186738 -0.09962344 -0.12623334 -0.29529518 0.26024008
0.22255842 -0.1980312 0.20675606 0.073697574 0.14339586 -0.20556068 -0.10167732 0.29639578
0.124721624 -0.28751332 0.20222789 -0.12613286 0.22359559 -0.2381398 -0.3078845 -0.13655563
0.11558161 0.0565798 0.24133101 0.13578217 0.0761303 0.25399533 -0.08790734 0.07202102
0.22339562 -0.13155194 -0.20505424 0.26645812 0.016319422 0.21961409 -0.21567406 -0.03727012
0.0248228 -0.036777608 0.2925446 0.1055064 0.11958573 -0.2717556 0.15712559 0.034298502
0.14030476 0.2925643 0.28381625 -0.27203068 0.16048072 -0.1553785 -0.24428794 -0.110229254
-0.076998495 -0.11309888 -0.29019794 -0.20912015 0.278259 -0.2582631 -0.32118854 0.22519964
0.21831958 0.2619726 0.15835533 0.025983414 0.13391007 -0.1875284 0.07132592 -0.09988936
0.045567617 -0.16268072 -0.12776648 0.0069761965 -0.28095087 -0.28215307 -0.17039552 0.12150818
0.3192246 -0.14673342 -0.17611195 -0.10917813 0.21669464 0.24284989 -0.08078795 0.013822303
0.18429159 -0.06836203 -0.101096995 -0.035571113 0.049331825 -0.23753653 -0.22194691 0.17387065
-0.25729537 0.15243393 -0.0478583 -0.044209138 -0.23857006 0.19250484 0.0042489567 -0.16614884
0.29321352 -0.20613424 -0.29407212 0.13993324 0.046926897 -0.2605497 0.27239504 0.11633434
-0.2039134 0.2071534 0.12954727 0.0071495813 -0.15265383 0.13664797 0.06524609 -0.31971526
0.17646489 -0.1230424 -0.12025215 0.09469269 -0.01835743 -0.16449991 0.08112259 -0.13197248
0.1648661 -0.114385255 -0.19849448 -0.14546055 0.036917478 0.07212632 0.05325863 0.16454037
0.036931947 -0.12121451 0.26799944 0.17596464 0.16163307 0.0094181495 -0.2322162 -0.1043871
0.23807025 0.034443505 0.06583018 -0.22130609 0.032087296 -0.049277626 0.21417676 -0.13045935
-0.13817652 -0.27659863 0.23780246 -0.20759733 -0.28272617 0.2013014 0.28793523 0.07674734
-0.024742924 0.2537315 0.05811525 -0.26495498 -0.031509347 -0.31115177 -0.10283837 0.09444845
-0.27038315 0.28218916 -0.06147679 0.19423744 0.14011498 -0.13476306 -0.23562498 0.12644207
00000000: ae85 763e 9ccc 85be 7754 c33a 5176 823d
00000010: fbb2 3ebd ff18 f43d bd46 cabd 9437 5bbb
00000020: be4a 923e 7a15 963e 8778 58be c16a 25be
00000030: 3fbb 95be 350d 28be 3f36 64be c4d9 35bd
00000040: 9922 51be f59b 66be fd23 1ebe c472 04bd
00000050: 9473 043d 5327 ce3b 5316 09be 67c7 2d3e
00000060: f437 9c3e 4795 55be 3396 bebd f8bb e9bd
00000070: 8142 65be 98ce dcbd dbf2 86b7 895a 70bd
00000080: 85ec 51be 3737 063e b210 2f3d c543 893d
00000090: d44c 73be 4969 16be fc14 093d 47f0 333e
000000a0: d279 b13d 3ef7 b0bd 40a7 89be 1e52 993e
000000b0: de03 063e ba25 52be 53de fb3d c7f7 ddbd
000000c0: 7626 7a3e f7db 6fbe 65fa 4b3e e1cb 673e
000000d0: 0f65 323e 5b61 533e 90ec 9cbd c9f5 43be
000000e0: 03fd 793e b81f 34be 6857 71be c3ad a6bd
000000f0: e2c1 143e 66ea 01ba 21c5 683e 9739 033e
00000100: 18e0 febd 3d27 553e 370f 4dbe cf1a 1c3d
00000110: 4b43 5cbe 5f17 163e cb0f 9b3e 1099 71bd
00000120: e5c2 86bd 2f30 5e3e 588a 183d a4ce 7c3e
00000130: 275d 81be 8ee4 993e f65c 91bd 42a9 99be
00000140: 8fd1 493e 5203 69bd 9c60 8c3e 217d 2bbd
00000150: 6007 ccbd 5043 01be ee30 97be 303e 853e
00000160: 5be6 633e b1c8 4abe dcb7 533e c1ee 963d
00000170: 5dd6 123e 807e 52be 333c d0bd 30c1 973e
00000180: 0d6e ff3d f234 93be d414 4f3e f928 01be
00000190: 3ef6 643e ebda 73be 0aa3 9dbe 3dd5 0bbe
000001a0: 0db6 ec3d 38c0 673d 7a1f 773e 7b0a 0b3e
000001b0: 34ea 9b3d ad0b 823e c308 b4bd c27f 933d
000001c0: d2c1 643e 8db5 06be bdf9 51be 336d 883e
000001d0: 4fb0 853c 84e2 603e a9d9 5cbe 8ea8 18bd
000001e0: 2f59 cb3c 1ea4 16bd 68c8 953e bd13 d83d
000001f0: 5de9 f43d 8d23 8bbe 88e5 203e 967c 0c3d
00000200: 0dac 0f3e fdca 953e 5d50 913e 9b47 8bbe
00000210: 0f55 243e 8b1b 1fbe 9e26 7abe e0bf e1bd
00000220: 63b1 9dbd 63a0 e7bd d394 94be 9823 56be
00000230: f777 8e3e 103b 84be d372 a4be bc9a 663e
00000240: 2b8f 5f3e 4621 863e e627 223e 2bdb d43c
00000250: b91f 093e 7207 40be 5313 923d cb92 ccbd
00000260: 1ca5 3a3d c695 26be 37d5 02be 9498 e43b
00000270: cbd8 8fbe 5e76 90be 2a7c 2ebe 48d9 f83d
00000280: 6871 a33e 4941 16be b156 34be c998 dfbd
00000290: 33e5 5d3e a4ad 783e 2774 a5bd f176 623c
000002a0: efb6 3c3e 6401 8cbd f10b cfbd 04b3 11bd
000002b0: 2b10 4a3d c73c 73be 0d46 63be 260b 323e
000002c0: 38bc 83be a417 1c3e 1107 44bd a414 35bd
000002d0: b64b 74be fd1f 453e d53a 8b3b ec22 2abe
000002e0: 1520 963e db14 53be 9f90 96be a94a 0f3e
000002f0: 6b36 403d c566 85be 5d77 8b3e b340 ee3d
00000300: adce 50be 0520 543e 0aa8 043e 0947 ea3b
00000310: 4951 1cbe 72ed 0b3e be9f 853d b8b1 a3be
00000320: 36b3 343e a7fd fbbd c246 f6bd 3eee c13d
00000330: 5262 96bc aa72 28be 9a23 a63d cb23 07be
00000340: a9d2 283e d142 eabd 2342 4bbe 9cf3 14be
00000350: c836 173d f7b6 933d b925 5a3d 457d 283e
00000360: f445 173d 503f f8bd 3937 893e 1330 343e
00000370: 2483 253e 954e 1a3c 15ca 6dbe e7c8 d5bd
00000380: b0c8 733e a214 0d3d f9d1 863d 109e 62be
00000390: f86d 033d 56d7 49bd 2751 5b3e 2397 05be
000003a0: 257e 0dbe 569e 8dbe 7d82 733e 6594 54be
000003b0: 7cc1 90be f421 4e3e 3f6c 933e b62d 9d3d
000003c0: acb1 cabc 18e9 813e 420a 6e3d 2ea8 87be
000003d0: f20f 01bd 494f 9fbe ec9c d2bd 306e c13d
000003e0: a96f 8abe 197b 903e 16cf 7bbd 2ee6 463e
000003f0: 4d7a 0f3e 54ff 09be ad47 71be 087a 013e

fc2.weight f4 [256, 512]
0.9585313 0.70544666 1.45903 0.6665491 0.91910166 1.541661 -0.13691008 -0.19248854
1.4540014 0.3027254 -0.27335253 0.03719517 1.673087 2.9844723 -0.009217608 0.54934907
0.33928353 0.67673177 2.00859 0.5197369 2.220996 -1.8146935 -0.10113418 -0.024412425
0.8189889 0.09664886 0.48639587 0.17380181 0.8233108 0.32356676 0.32043633 0.9273113
0.28850144 1.8753195 0.46037662 0.44635856 2.5306156 -0.34196362 0.023839109 1.2042264
2.081522 -0.22959764 -0.79549074 2.5546408 0.38103217 1.0241888 -0.032812394 0.0025517603
-0.0652557 1.9999545 0.3256757 0.9099177 0.8373992 0.21838176 0.12181624 2.7981656
1.4461429 2.149193 -0.07824949 0.63849086 0.82489026 0.6139997 -0.44823667 1.0169379
-0.36834103 3.9073021 0.49876454 1.188127 1.1586053 0.32078743 -0.009550331 1.1240635
0.43796325 1.0258877 1.0658672 -0.6621025 1.7548252 -1.2421708 0.55723447 -0.08579271
0.390574 0.61769545 0.13601817 0.6841639 0.037070226 1.1032066 1.2361062 -0.29153168
0.26520187 -0.068229906 0.346847 -0.02575233 -0.9322427 0.76051843 0.13292895 0.6117728
1.1682898 0.031942643 -1.6694416 -1.5918654 0.31867552 1.0410317 1.7320781 0.5761565
2.2010777 0.7711217 0.03767338 -1.7712691 1.7048562 0.9635232 -0.33797008 0.21535082
-0.30445722 -0.06892576 0.44752288 0.1404303 -0.0077390047 -0.18461384 -0.99737126 -0.002642054
-0.5018517 -0.13545552 -0.059235904 -0.34917116 0.07211748 0.6841543 -0.04346895 -0.9373583
0.09697529 -0.31897134 0.78183585 -0.22108626 -0.70134217 0.2014393 0.03165033 0.5062176
0.89332193 3.363753 -1.0382112 -0.16362377 1.4577552 0.62066174 -0.056676406 0.83183044
0.65960234 -0.41938975 0.18421142 1.2895056 0.21727839 -0.7618277 2.946855 0.26350573
0.101640835 2.5614464 -0.24950887 -0.8912482 -0.10907342 -0.19436403 0.37234217 0.40023735
0.44829732 0.04348794 0.039343365 2.2992027 1.9613855 0.839909 -0.47555688 -0.36625442
0.8145856 -0.42869103 0.68978494 -0.14154693 1.4056697 1.105638 2.7408772 -0.7708569
-0.06798317 1.9256595 -0.087388165 0.15964085 2.0379412 0.96857977 0.7581104 0.5368496
0.11838265 2.8260684 2.8045075 2.219743 -0.36676607 1.5959944 -0.64000076 1.1354845
0.32015988 2.314161 0.44361302 0.18600073 -0.05274989 1.3451833 1.7430078 0.22770832
-0.14189965 -0.32804132 -0.12788217 1.4839445 -0.050233975 1.836164 1.9156456 0.69786525
1.2941206 0.49077782 1.7446319 1.757724 3.3140585 -0.12470611 0.5414117 -0.6588776
-0.9501919 -0.5673697 2.606951 0.013979034 0.40276054 -1.7848225 0.5839355 0.6090358
-0.039928194 0.56079143 2.7954865 1.6207942 1.5333163 1.4195138 0.5077786 1.7355224
-0.10555162 1.1855608 0.06134652 -0.29306912 -0.05788013 3.878101 -0.020954778 0.29923686
0.81366044 2.2676697 -0.24932033 0.4022936 -0.654393 -1.0256916 -0.35786763 -0.14176305
1.1405929 1.7399079 1.167221 -0.2441175 2.5588744 -0.79427916 -1.9077204 0.8026844
00000000: 4f62 753f 2798 343f 7fc1 ba3f f6a2 2a3f
00000010: 3f4a 6b3f 2655 c53f 2832 0cbe b71b 45be
00000020: b81c ba3f d3fe 9a3e ddf4 8bbe f659 183d
00000030: b727 d63f 9801 3f40 7305 17bc 24a2 0c3f
00000040: 92b6 ad3e 4b3e 2d3f bd8c 0040 7a0d 053f
00000050: cc24 0e40 e047 e8bf 701f cfbd 91fc c7bc
00000060: 42a9 513f d6ef c53d e108 f93e 1af9 313e
00000070: 7fc4 523f 8baa a53e 3b10 a43e 4664 6d3f
00000080: 76b6 933e 780a f03f 7cb6 eb3e 1c89 e43e
00000090: 9bf5 2140 db15 afbe 3c4a c33c 1724 9a3f
000000a0: a837 0540 a51b 6bbe 48a5 4bbf 3c7f 2340
000000b0: a616 c33e 9e18 833f 4a66 06bd 6f3b 273b
000000c0: c8a4 85bd 82fe ff3f f7be a63e 5ef0 683f
000000d0: cb5f 563f 789f 5f3e cb7a f93d 2515 3340
000000e0: 361b b93f 618c 0940 4541 a0bd 2374 233f
000000f0: 022c 533f 162f 1d3f 477f e5be 052b 823f
00000100: 3297 bcbe 3d11 7a40 115e ff3e 8c14 983f
00000110: 2e4d 943f 403e a43e fe78 1cbc 50e1 8f3f
00000120: b83c e03e 4a50 833f 566e 883f 8d7f 29bf
00000130: 1d9e e03f 74ff 9ebf eba6 0e3f 17b4 afbd
00000140: 51f9 c73e 4a21 1e3f 5948 0b3e 5e25 2f3f
00000150: f3d6 173d e035 8d3f ba38 9e3f a443 95be
00000160: 8ac8 873e 1fbc 8bbd ee95 b13e 8df6 d2bc
00000170: 75a7 6ebf 56b1 423f 871e 083e 249d 1c3f
00000180: 858a 953f 4ad6 023d 43b0 d5bf 3fc2 cbbf
00000190: 7029 a33e 8740 853f bcb4 dd3f fe7e 133f
000001a0: 75de 0c40 3b68 453f 674f 1a3d f2b8 e2bf
000001b0: ba38 da3f 75a9 763f 6a0a adbe ed84 5c3e
000001c0: d1e1 9bbe f328 8dbd b821 e53e f6cc 0f3e
000001d0: 7a97 fdbb 690b 3dbe b953 7fbf 5026 2dbb
000001e0: 5a79 00bf dab4 0abe 59a1 72bd 90c6 b2be
000001f0: 54b2 933d bc24 2f3f 7f0c 32bd b7f6 6fbf
00000200: fb9a c63d 3650 a3be 6526 483f 7064 62be
00000210: 298b 33bf 1b46 4e3e c7a3 013d 7a97 013f
00000220: bfb0 643f bb47 5740 1be4 84bf fd8c 27be
00000230: b997 ba3f b0e3 1e3f 8525 68bd d7f2 543f
00000240: b3db 283f 41ba d6be eba1 3c3e 850e a53f
00000250: 3a7e 5e3e 2407 43bf 4699 3c40 39ea 863e
00000260: 1229 d03d bdee 2340 417f 7fbe d828 64bf
00000270: e361 dfbd 5d07 47be a2a3 be3e e9eb cc3e
00000280: 3a87 e53e 6920 323d 8226 213d 2326 1340
00000290: ae0e fb3f 4704 573f 317c f3be b385 bbbe
000002a0: af88 503f 647d dbbe bf95 303f aef1 10be
000002b0: fcec b33f 8c85 8d3f 886a 2f40 e156 45bf
000002c0: c33a 8bbd 037c f63f 91f8 b2bd e478 233e
000002d0: a16d 0240 d8f4 773f 8613 423f fa6e 093f
000002e0: 9a72 f23d 4ede 3440 0d7d 3340 4510 0e40
000002f0: c3c8 bbbe 8b49 cc3f 17d7 23bf 8e57 913f
00000300: ffeb a33e 371b 1440 3f21 e33e fa76 3e3e
00000310: 4510 58bd f72e ac3f e11a df3f 5f2c 693e
00000320: 244e 11be 08f5 a7be 8bf3 02be e5f1 bd3f
00000330: 24c2 4dbd 6c07 eb3f e033 f53f 4ca7 323f
00000340: bea5 a53f 3b47 fb3e 1950 df3f 1afd e03f
00000350: 8919 5440 eb65 ffbd f599 0a3f 34ac 28bf
00000360: c73f 73bf 243f 11bf 49d8 2640 5108 653c
00000370: a136 ce3e 1075 e4bf cc7c 153f c5e9 1b3f
00000380: bf8b 23bd 0790 0f3f 40e9 3240 2f76 cf3f
00000390: b543 c43f a1b2 b53f c7fd 013f 9925 de3f
000003a0: 732b d8bd 75c0 973f 7d46 7b3d 280d 96be
000003b0: b713 6dbd cf32 7840 5ba9 abbc 9335 993e
000003c0: 0d4c 503f 8021 1140 d44d 7fbe 6df9 cd3e
000003d0: 4d86 27bf dd49 83bf 6d3a b7be 552a 11be
000003e0: f3fe 913f 4db5 de3f 7f67 953f f0f9 79be
000003f0: 99c4 2340 e155 4bbf 2f30 f4bf ba7c 4d3f

fc2.bias f4 [256]
-0.014489427 -0.03356699 0.0026197892 -0.036481455 0.036808908 0.0015480296 -0.017932028 -0.026323749
0.006151496 -0.032777466 0.019587819 0.017570576 0.0279623 0.020004133 0.04605627 0.010582374
0.03393385 0.024278795 0.043129023 0.02427368 -0.020138908 -0.036548413 0.040015355 0.003931914
0.03463745 -0.009188768 -0.021712126 0.023868 -0.02321263 0.03697405 -0.0053039226 0.0364377
-0.0026107305 -0.040587597 -0.0009940449 -0.035337344 -0.0033880866 0.03194741 -0.0098202955 -0.0068824077
0.025329232 -0.015050593 0.0015562729 -0.004220416 0.02587721 0.021294983 0.039084688 -0.03290884
-0.029031163 0.020610752 0.030043958 0.0338579 -0.04225231 -9.5374155e-05 -0.040351763 0.028423745
0.015760235 0.007904683 -0.019451207 -0.032262888 -0.014580911 0.033975 0.015934628 -0.003919532
0.014911349 0.026513567 0.013260847 -0.002801112 -0.014122989 0.0013453381 -0.04063511 0.0190496
-0.009347064 -0.039589092 0.008428843 0.02046049 -0.033962984 0.0052205264 -0.01823029 0.010011378
-0.025387133 -0.036463927 -0.04333659 0.030095523 0.037088748 0.021342728 0.029947523 0.030117825
-0.014315857 0.027533572 0.022669304 -0.014242512 0.005863906 0.031270877 0.008389564 0.03993206
-0.012086368 -0.040330086 0.005984298 -0.0013510536 -0.024538908 0.015673397 -0.03196967 0.0014306178
0.010430477 0.029971048 0.032676898 -0.041528568 -0.013859506 0.036448542 -0.041201156 0.024924522
0.022321532 0.0022171957 0.011164782 0.0066970186 0.008862595 0.037085768 -0.004593293 0.025855493
0.00010903528 -0.012562396 -0.04058454 -0.029964622 -0.037120078 -0.039729223 0.032011915 -0.03914545
0.024109095 0.016319366 0.044278204 -0.015985785 0.01918932 -0.0374401 -0.017848238 0.04417881
-0.02511705 0.029361703 0.0038955822 -0.01495645 -0.029300138 -0.00075368525 0.03144911 0.041236736
-0.03492438 -0.02440906 0.039241225 -0.018624036 -0.035689536 -0.013402871 -0.011733067 0.016762467
-0.028865457 -0.031983297 -0.0031534547 0.030393282 0.0136491135 -0.025554242 -0.040027276 -0.0007348181
-0.0323531 -0.036843807 0.03818493 0.0010728153 -0.03819019 0.008950206 0.045171045 0.042691745
-0.0044398257 0.030963957 -0.03716228 0.004444606 0.008379564 0.026561888 -0.03434829 -0.019921072
0.03074918 0.02155832 0.031171102 0.043875396 0.044731103 0.01947273 0.010626551 0.028876202
0.012128955 -0.037570655 0.037145786 0.0006298556 -0.025600282 -0.007948527 0.030620791 0.026674325
-0.017049076 -0.007017035 -0.028606653 0.032616418 0.009532714 -0.010088263 0.022187542 -0.02710539
-0.02774668 -0.034166336 0.03857441 0.021842765 -0.01612864 -0.023626769 -0.03609287 -0.004440782
-0.013783607 -0.021081755 0.021859614 -0.034967326 -0.0049300897 -0.041407876 -0.0106188515 0.042723317
0.016840583 -0.0409101 -0.037226792 0.015460269 -0.03763084 0.0036379648 0.033716384 -0.016588546
-0.0077187493 0.034586444 0.015667072 -0.0040082596 0.011673263 0.040185254 0.038116682 0.03548503
0.024611937 0.032647736 -0.003531231 -0.020392211 0.013281098 0.0038608953 0.03354664 -0.034342613
0.025522653 0.036142956 0.0442879 0.021381387 -0.03823813 0.038753074 -0.045205858 -0.027243126
0.02792648 0.017302353 0.03637351 0.03806095 -0.03648267 0.021342427 -0.01625363 -0.03250094
00000000: 1065 6dbc 8a7d 09bd c5b0 2b3b 946d 15bd
00000010: f0c4 163d 41e7 ca3a 30e6 92bc e7a4 d7bc
00000020: 7d92 c93b aa41 06bd a276 a03c 2bf0 8f3c
00000030: 3211 e53c b5df a33c 80a5 3c3d b261 2d3c
00000040: 38fe 0a3d 53e4 c63c 0fa8 303d 99d9 c63c
00000050: 5afa a4bc cab3 15bd 24e7 233d 49d7 803b
00000060: 00e0 0d3d 7d8c 16bc a1dd b1bc d386 c33c
00000070: 6a28 bebc 1a72 173d 87cc adbb b33f 153d
00000080: ca18 2bbb 2e3f 26bd 9d4a 82ba e4bd 10bd
00000090: a90a 5ebb 4adb 023d 4ee5 20bc d285 e1bb
000000a0: 407f cf3c c396 76bc dafb cb3a 6a4b 8abb
000000b0: 71fc d33c d172 ae3c 4417 203d 6bcb 06bd
000000c0: c3d2 edbc e1d7 a83c bf1e f63c 95ae 0a3d
000000d0: c210 2dbd 9c03 c8b8 e447 25bd ead8 e83c
000000e0: 9c1b 813c a582 013c 2358 9fbc 1726 04bd
000000f0: c6e4 6ebc 5f29 0b3d 5689 823c 6b6f 80bb
00000100: bb4e 743c fb32 d93c 0644 593c dc92 37bb
00000110: 1c64 67bc 0e56 b03a 0071 26bd e80d 9c3c
00000120: 6e24 19bc 2c28 22bd 2119 0a3c c29c a73c
00000130: c51c 0bbd f310 ab3b b057 95bc c306 243c
00000140: adf8 cfbc 335b 15bd b581 31bd e38a f63c
00000150: 5fea 173d f2d6 ae3c 8254 f53c a8b9 f63c
00000160: 0e8d 6abc 168e e13c fab4 b93c 6d59 69bc
00000170: 0226 c03b e415 003d 6274 093c cd8f 233d
00000180: e705 46bc 2931 25bd ee17 c43b d615 b1ba
00000190: d205 c9bc 7f65 803c a1f2 02bd 9183 bb3a
000001a0: 97e4 2a3c d885 f53c 36d8 053d dc19 2abd
000001b0: fb12 63bc 114b 153d 8bc2 28bd 832e cc3c
000001c0: a5db b63c 5f4e 113b 7dec 363c aa72 db3b
000001d0: 6b34 113c 3fe7 173d 5683 96bb e6ce d33c
000001e0: dfa9 e438 82d2 4dbc fa3b 26bd 5e78 f5bc
000001f0: 390b 18bd 1cbb 22bd ed1e 033d fb56 20bd
00000200: 7080 c53c 31b0 853c 105d 353d 9ff4 82bc
00000210: ec32 9d3c ca5a 19bd 7836 92bc d7f4 343d
00000220: 46c2 cdbc f487 f03c 064d 7f3b e60b 75bc
00000230: d806 f0bc f692 45ba c8d0 003d dae7 283d
00000240: de0c 0fbd 82f5 c7bc 68bb 203d 6f91 98bc
00000250: 312f 12bd b797 5bbc 0d3c 40bc 7151 893c
00000260: 4077 ecbc eb00 03bd 31aa 4ebb 55fb f83c
00000270: 88a0 5f3c 2157 d1bc a4f3 23bd cfa0 40ba
00000280: af84 04bd 88e9 16bd cd67 1c3d b59d 8c3a
00000290: 516d 1cbd e3a3 123c 4605 393d 8add 2e3d
000002a0: f57b 91bb 20a8 fd3c 7a37 18bd 0fa4 913b
000002b0: 704a 093c 5198 d93c cbb0 0cbd 8431 a3bc
000002c0: b4e5 fb3c 139b b03c 8a5a ff3c b0b6 333d
000002d0: f637 373d 4685 9f3c fc1a 2e3c c98d ec3c
000002e0: 86b8 463c b0e3 19bd 2e26 183d e51c 253a
000002f0: afb7 d1bc 8a3a 02bc 74d8 fa3c 1d84 da3c
00000300: 81aa 8bbc 28ef e5bb 8058 eabc cb98 053d
00000310: 1a2f 1c3c 3e49 25bc a6c2 b53c 1f0c debc
00000320: 014d e3bc 00f2 0bbd 3300 1e3d 99ef b23c
00000330: 3620 84bc ed8c c1bc 1ed6 13bd fb83 91bb
00000340: a3d4 61bc a5b3 acbc ef12 b33c e639 0fbd
00000350: 978c a1bb 4e9b 29bd b1fa 2dbc a5fe 2e3d
00000360: 43f5 893c 5991 27bd 1f7b 18bd 114d 7d3c
00000370: cc22 1abd ec6a 6e3b 311a 0a3d b4e4 87bc
00000380: 90ed fcbb 84aa 0d3d 3b58 803c b857 83bb
00000390: 3741 3f3c 4b99 243d 3d20 1c3d c058 113d
000003a0: f99e c93c a2b9 053d 3a6c 67bb 910d a7bc
000003b0: f698 593c 1307 7d3b 3468 093d d7aa 0cbd
000003c0: e214 d13c a30a 143d 3b67 353d 0528 af3c
000003d0: 969f 1cbd 8bbb 1e3d c729 39bd fa2c dfbc
000003e0: 13c6 e43c aabd 8d3c 64fc 143d cce5 1b3d
000003f0: da6e 15bd 50d6 ae3c 5526 85bc b51f 05bd

fc3.weight f4 [128, 256]
0.45704386 0.7969435 1.3261653 1.520348 1.302064 0.71814835 0.0074710306 1.6567044
0.34819987 -0.27433634 0.23591739 -0.053684272 0.40282175 -0.19531856 4.5346236 2.4201806
0.43654242 2.7679298 1.1416556 0.16900444 3.66459 0.12505469 -0.83357376 0.009266222
1.0722871 -0.18130091 -1.2904334 1.5614907 2.0770648 -1.9583645 1.3390027 0.41738534
-0.21151824 -0.13214159 2.5595744 2.8502417 0.09493533 3.595316 0.41595304 -0.49027056
1.3520931 0.10652573 2.3757946 0.12864342 2.7652354 -0.40917867 -0.32423753 -3.5947685
-1.5123718 0.044310357 0.3720042 0.9349886 -0.042838573 1.0700086 -0.70549124 1.102303
0.061571658 2.6858215 -5.65768 -1.075667 0.8634989 3.1060975 -0.8033089 0.15288551
2.936273 0.17317373 1.2122282 1.8760581 -1.3758539 -0.28312933 4.490046 3.0110655
-1.9958985 0.65186125 0.105332464 0.6725425 0.42284423 0.5532058 3.7553618 -0.28906813
0.42834952 0.55651623 1.7784909 4.018324 1.3071454 0.5682133 -1.6485531 0.27408254
2.0663958 0.5832779 -0.17154922 -1.1826383 1.5974749 1.2390741 0.60639167 -0.32206255
1.8109957 3.0859404 2.8399937 0.12317233 2.9474902 -0.14027868 -0.06729014 0.25659332
3.2165222 -1.2549425 1.3838229 -0.90868974 0.37620264 0.73372465 -0.06188486 -0.722549
-0.70188755 2.9835732 -0.11419316 2.3566656 -1.1059216 0.8693148 1.3953682 -0.44528285
1.253359 0.0928473 1.145284 0.6493494 2.9421644 0.98549336 2.607594 0.31851783
0.44431272 -0.9690548 1.3650032 3.5548627 -0.72345334 0.22178221 -0.23728043 1.1799184
0.11966039 0.5558248 0.105204575 1.6977597 -4.6981683 1.6034354 -0.06733443 -0.47216913
2.5660913 0.26716563 4.923921 -1.4593148 -0.02735799 0.9028677 0.19651634 0.8907083
1.4185106 -0.3300335 -1.1206439 -0.48443088 0.23273633 0.12762974 2.6503832 0.5213939
-0.6232159 -0.019815266 0.07176838 2.3891277 3.1679552 0.5827107 3.3875074 0.14568682
1.57874 0.7341329 3.0322857 0.8767704 1.4036686 1.2928795 1.090094 0.6026121
0.576084 -2.2001703 -0.34592125 0.91838366 2.574712 0.35109207 3.7952232 2.8112888
2.126952 -1.0865154 2.5215495 3.4590366 1.1506753 0.24672437 2.103238 1.6485217
1.4237151 0.74555963 0.24673818 1.7375256 0.09733475 2.8309119 -0.01338163 -0.3671525
0.9671211 2.09261 0.9457372 0.4992937 0.49628046 1.342718 2.4725578 2.790007
1.854407 -0.62263805 3.1809556 -3.6352203 0.33391333 0.91333437 -0.4046251 0.3995507
1.2397786 1.4138932 1.2242893 1.9733891 1.1752326 0.53088653 1.4067104 -0.7444284
-0.43253103 1.8793577 1.8950804 0.8265603 0.008602891 1.084692 4.107477 1.2605575
0.7629521 0.018419873 0.64750373 -0.83617187 3.3622937 2.3565001 1.2235159 0.10751015
-0.25752795 0.29657546 3.5375516 1.7384068 0.09615686 0.5737018 -0.006727008 1.9568917
-0.63429725 0.043270033 1.4029104 0.09574312 -0.8507783 1.8689964 1.8555053 0.02976768
00000000: a701 ea3e 7d04 4c3f c9bf a93f c39a c23f
00000010: 08aa a63f 92d8 373f 8ccf f43b e40e d43f
00000020: 4147 b23e d075 8cbe 5494 713e 0ae4 5bbd
00000030: a73e ce3e 9701 48be a31b 9140 3de4 1a40
00000040: 7d82 df3e c325 3140 c521 923f 800f 2d3e
00000050: a488 6a40 560e 003e 1765 55bf 5ad1 173c
00000060: b440 893f f2a6 39be ec2c a5bf edde c73f
00000070: a1ee 0440 b0ab fabf 7164 ab3f 88b3 d53e
00000080: 3d98 58be 2050 07be 11d0 2340 5c6a 3640
00000090: 746d c23d a819 6640 ccf7 d43e be04 fbbe
000000a0: 6311 ad3f 292a da3d 050d 1840 1abb 033e
000000b0: 9ef9 3040 de7f d1be 7602 a6be b010 66c0
000000c0: 6695 c1bf c77e 353d 5677 be3e 6a5b 6f3f
000000d0: 8077 2fbd 0bf6 883f 139b 34bf 4418 8d3f
000000e0: 9032 7c3d 80e4 2b40 b70b b5c0 75af 89bf
000000f0: 440e 5d3f 4dca 4640 a7a5 4dbf 058e 1c3e
00000100: e6eb 3b40 7454 313e 4b2a 9b3f ac22 f03f
00000110: fb1b b0bf 54f6 90be 75ae 8f40 4cb5 4040
00000120: 9a79 ffbf 61e0 263f 8cb8 d73d bf2b 2c3f
00000130: 0a7f d83e e59e 0d3f d957 7040 bd00 94be
00000140: a150 db3e d977 0e3f 97a5 e33f 1c96 8040
00000150: 8a50 a73f 6d76 113f ca03 d3bf 8c54 8c3e
00000160: d43f 0440 b351 153f 99aa 2fbe b160 97bf
00000170: 0f7a cc3f fb99 9e3f 7c3c 1b3f 62e5 a4be
00000180: b5ce e73f 0c80 4540 75c2 3540 c641 fc3d
00000190: aea3 3c40 37a5 0fbe 6acf 89bd 3360 833e
000001a0: 80db 4d40 f5a1 a0bf 1c21 b13f e49f 68bf
000001b0: a29d c03e 61d5 3b3f fb7a 7dbd f9f8 38bf
000001c0: e7ae 33bf ddf2 3e40 1ade e9bd 9cd3 1640
000001d0: d78e 8dbf 6a8b 5e3f 6d9b b23f 1dfc e3be
000001e0: 116e a03f ba26 be3d ab98 923f c33b 263f
000001f0: 6c4c 3c40 4b49 7c3f d2e2 2640 c514 a33e
00000200: f57c e33e fa13 78bf 6db8 ae3f df82 6340
00000210: 3d34 39bf e01a 633e a4f9 72be 9107 973f
00000220: 8210 f53d 894a 0e3f 7f75 d73d 3150 d93f
00000230: 6557 96c0 5f3d cd3f a2e6 89bd 27c0 f1be
00000240: d73a 2440 efc9 883e c390 9d40 d4ca babf
00000250: dd1d e0bc 5622 673f 943b 493e 7605 643f
00000260: c191 b53f 27fa a8be 4271 8fbf 5307 f8be
00000270: 6f52 6e3e 5fb1 023e e19f 2940 127a 053f
00000280: 148b 1fbf a053 a2bc 4dfb 923d 78e7 1840
00000290: c7bf 4a40 872c 153f eccc 5840 ed2e 153e
000002a0: 2714 ca3f 22f0 3b3f f810 4240 0674 603f
000002b0: 6aab b33f 137d a53f 3388 8b3f c944 1a3f
000002c0: 3e7a 133f 97cf 0cc0 971c b1be 311b 6b3f
000002d0: 15c8 2440 57c2 b33e f0e4 7240 28ec 3340
000002e0: fb1f 0840 f012 8bbf 1161 2140 db60 5d40
000002f0: 5449 933f 50a5 7c3e 749b 0640 c202 d33f
00000300: 4c3c b63f ffdc 3e3f efa8 7c3e 3d67 de3f
00000310: 7157 c73d a92d 3540 a03e 5bbc 6afb bbbe
00000320: 4095 773f 52ed 0540 d51b 723f 6da3 ff3e
00000330: 7918 fe3e 2fde ab3f 633e 1e40 7a8f 3240
00000340: 355d ed3f 3565 1fbf c794 4b40 73a7 68c0
00000350: b0f6 aa3e 48d0 693f 052b cfbe e991 cc3e
00000360: 11b1 9e3f 74fa b43f 83b5 9c3f 0498 fc3f
00000370: 066e 963f 2ee8 073f 160f b43f dc92 3ebf
00000380: b574 ddbe cb8e f03f ff91 f23f 7599 533f
00000390: 24f3 0c3c 30d7 8a3f 7470 8340 f359 a13f
000003a0: d450 433f 46e5 963c cec2 253f 5c0f 56bf
000003b0: d22f 5740 e6d0 1640 2b9c 9c3f 482e dc3d
000003c0: b4da 83be bdd8 973e 3f67 6240 1d84 de3f
000003d0: e3ed c43d 1fde 123f 3c6e dcbb 6d7b fa3f
000003e0: 4e61 22bf eb3b 313d 9192 b33f f814 c43d
000003f0: 9bcc 59bf 463b ef3f 3381 ed3f 5adb f33c

fc3.bias f4 [128]
0.05875774 -0.014305298 -0.04336874 0.016919808 -0.028629692 0.04491627 -0.0013011518 -0.025290083
0.053709567 -0.00033016046 -0.043112315 0.0024249302 -0.04645017 0.0034258196 0.05140745 -0.026149468
0.0112403 0.05173397 0.03533487 -0.0288759 0.048263513 -0.022872545 0.06426906 0.024651695
-0.04144023 0.031072274 -0.03451825 0.038767863 0.004244271 -0.050796084 0.0330883 -0.04006679
0.02823349 -0.04513957 -0.016391339 -0.02153858 0.058288306 -0.05330699 0.04649823 -0.025699481
0.007848329 -0.054104533 0.060009915 0.025965335 0.009255449 -0.0037988664 0.01720895 -0.03335757
-0.05772969 -0.0023780225 -0.045422845 0.03592612 0.052498765 -0.027157579 -0.03428218 0.03893996
-0.0076192264 0.047471087 -0.027877776 0.019400535 0.016371997 -0.019061167 -0.049458884 -0.011625357
-0.0082411785 -0.03188975 0.030910596 -0.025489485 -0.041943952 -0.0011398977 0.05331486 -0.033306107
-0.04748172 -0.026987717 0.007401921 -0.023075452 -0.06697155 0.061718553 -0.029115437 -0.05080328
0.062764876 -0.05676362 -0.04017302 0.017327597 0.056301706 -0.032800097 0.0061863125 -0.02454347
0.0077575645 -0.035500538 0.052119978 -0.003180731 -0.06029557 0.012242875 -0.019560134 0.021175507
0.0402397 0.00068232085 0.055536285 0.01900497 0.037044264 0.045111608 0.030104771 -0.054072008
0.03321051 -0.059225664 0.055526398 0.020870382 -0.06068596 -0.022179643 -0.035300657 -0.013107886
0.021219296 -0.032739677 -0.046051003 0.050048918 0.02353848 -0.008715258 0.060098544 0.009257969
-0.05900424 0.04624336 0.040620852 0.038235106 -0.027327811 -0.013140689 -0.055732504 -0.0184549
00000000: f5ab 703d c560 6abc 6ba3 31bd 699b 8a3c
00000010: d188 eabc 1ffa 373d 698b aaba 262d cfbc
00000020: 90fe 5b3d 6319 adb9 8a96 30bd 94eb 1e3b
00000030: 8942 3ebd b783 603b 9e90 523d 6937 d6bc
00000040: 3c29 383c 00e7 533d 4cbb 103d 278d ecbc
00000050: f6af 453d 345f bbbc 7f9f 833d 5af2 c93c
00000060: 3bbd 29bd 488b fe3c 0263 0dbd 0dcb 1e3d
00000070: 8713 8b3b 8e0f 50bd 9987 073d 131d 24bd
00000080: ec49 e73c 45e4 38bd 2147 86bc ad71 b0bc
00000090: b8bf 6e3d 6e58 5abd ee74 3e3d b887 d2bc
000000a0: 4796 003c b79c 5dbd f5cc 753d 41b5 d43c
000000b0: 2ba4 173c 67f6 78bb c9f9 8c3c f3a1 08bd
000000c0: f875 6cbd 99d8 1bbb 4e0d 3abd 4427 133d
000000d0: f208 573d 9279 debc 796b 0cbd 827f 1f3d
000000e0: b4aa f9bb 0b71 423d ef5f e4bc dfed 9e3c
000000f0: 911e 863c 2a26 9cbc 6695 4abd 4878 3ebc
00000100: 0206 07bc d49e 02bd 3838 fd3c 53cf d0bc
00000110: 6ccd 2bbd 9f68 95ba af60 5a3d fc6b 08bd
00000120: 317c 42bd 5815 ddbc d08b f23b bb08 bdbc
00000130: 6128 89bd 98cc 7c3d 7f83 eebc 1a17 50bd
00000140: df8a 803d f880 68bd 778c 24bd 9bf2 8d3c
00000150: 9e9c 663d 6559 06bd 8db6 ca3b 630f c9bc
00000160: 2b33 fe3b 0369 11bd c27b 553d d073 50bb
00000170: 7df8 76bd 5796 483c 933c a0bc 4278 ad3c
00000180: 62d2 243d c7dd 323a 047a 633d 50b0 9b3c
00000190: babb 173d f3c6 383d 489e f63c 9c7a 5dbd
000001a0: be07 083d 9c96 72bd a66f 633d 5df8 aa3c
000001b0: d791 78bd 15b2 b5bc 6c97 10bd 75c2 56bc
000001c0: 17d4 ad3c 0a1a 06bd fa9f 3cbd 1800 4d3d
000001d0: c5d3 c03c 71ca 0ebc e429 763d bdae 173c
000001e0: 6eae 71bd ad69 3d3d 0d62 263d 6a9c 1c3d
000001f0: 93de dfbc 0b4c 57bc c447 64bd bb2e 97bc

fc4.weight f4 [64, 128]
-0.28589982 -0.33677647 -0.076371714 -0.14188531 0.26773992 -0.074281916 -0.17556642 0.029742148
-0.0087251505 -0.30946103 -0.16953637 -0.00070561335 -0.25619715 0.15105839 -0.044799153 -0.17604211
-0.07770885 -0.10717487 -0.045706727 0.1096298 -0.032883305 0.0635723 0.037210062 0.007715383
-0.0632566 0.09320713 -0.07286999 -0.09302415 -0.005831884 0.023191502 0.018732963 -0.04978972
0.028005728 0.07998753 -0.0189807 0.047205795 -0.030277262 -0.09699619 -0.07766885 0.11326551
0.0131462645 0.07488432 0.028946267 0.028089132 -0.121401 -0.20981064 -0.151603 -0.049369603
0.0054359906 -0.02144331 0.11683629 -0.10146185 0.062319554 -0.3171818 0.05035851 -0.052390363
0.119455546 -0.049892403 0.03221914 -0.016151633 0.0009921881 -0.22137767 0.07071063 0.14472653
-0.1503769 -0.09574995 -0.19062503 -0.14049727 -0.023631586 0.0848945 -0.08044875 -0.014543166
-0.17849226 -0.1711126 0.069550656 -0.12657107 0.05142733 -0.15390259 -0.09959797 -0.12860112
-0.11310042 -0.1662095 -0.21060486 -0.17814569 -0.27747855 0.18794379 -0.005075076 -0.0343143
-0.13172421 -0.19330552 0.10652898 -0.13641398 -0.23173821 -0.04591468 0.027924767 0.119120225
0.026286189 -0.39605537 0.018108774 -0.039164998 -0.29455706 0.057333667 -0.10356329 -0.003364769
0.041348603 -0.24820665 -0.18270333 -0.08825761 -0.014765875 0.19743088 -0.32007244 -0.0135154445
-0.019768832 0.031933095 -0.052339282 -0.09519648 -0.1701462 -0.18539007 0.032427765 -0.07308546
-0.022154953 0.075832985 -0.23788701 0.2432673 -0.046753652 0.1711373 0.05139178 -0.021935567
0.10579742 0.063592486 0.02443141 -0.10727518 0.044687826 -0.0701193 -0.29328284 -0.046852402
0.02799278 -0.07051976 -0.21733741 0.033152092 0.0090840915 -0.1490834 0.07458288 -0.25503495
0.037480745 -0.1688341 -0.28870538 -0.094609626 0.1411502 0.09013225 -0.22036414 -0.1113995
0.18217053 0.05509437 -0.122045085 -0.0813981 0.08086817 0.04067249 0.0071972036 -0.4116192
0.0040586656 0.00093130575 0.23566361 -0.09590848 -0.28353423 0.1355241 -0.25012508 -0.3768528
-0.20471269 0.043247823 -0.02618568 0.038874365 -0.0391216 -0.18008405 0.007951984 -0.028161768
-0.35973245 -0.14830619 -0.021754086 -0.19345823 -0.06455995 -0.06273979 -0.0481964 0.010605759
-0.039401706 -0.05842633 -0.12980828 -0.022694767 -0.027359579 0.12661535 0.13892469 0.008837428
-0.32264352 -0.27256536 0.08226922 -0.26619524 -0.101577796 0.12013447 -0.2815374 0.3379109
-0.15875924 -0.17787363 -0.17489246 0.0761801 -0.12073861 -0.09968864 -0.26860985 -0.25110537
-0.36076686 -0.124455675 0.004784778 -0.22712392 -0.10404088 0.03697634 -0.090468064 0.096980646
0.19213358 0.078936115 0.15156128 0.13445088 0.022049319 -0.013067809 -0.17003457 -0.057946097
0.045552775 -0.10586601 -0.23499288 0.027677013 -0.16224456 -0.059336767 -0.3869523 0.13542694
-0.15930775 -0.317637 -0.16636808 -0.086767405 -0.026999963 -0.064483285 -0.08065642 0.08090525
-0.098829314 0.018926729 -0.061502185 -0.29813355 -0.2491395 0.038591914 0.04086124 -0.15988232
0.09598725 0.16135369 -0.06256721 0.1516325 0.08615377 0.020067662 -0.11028399 -0.059662662
00000000: 7661 92be f76d acbe c668 9cbd 624a 11be
00000010: 3515 893e 1e21 98bd afc7 33be cea5 f33c
00000020: eff3 0ebc ad71 9ebe f19a 2dbe e9f8 38ba
00000030: 462c 83be 0daf 1a3e 517f 37bd 6244 34be
00000040: d125 9fbd 807e dbbd fa36 3bbd 9785 e03d
00000050: a5b0 06bd 3232 823d 9469 183d 53d1 fc3b
00000060: ad8c 81bd 61e3 be3d dc3c 95bd 7283 bebd
00000070: 6419 bfbb 1bfc bd3c df75 993c 4ef0 4bbd
00000080: 456c e53c 81d0 a33d 6a7d 9bbc dd5a 413d
00000090: 0508 f8bc f0a5 c6bd d910 9fbd bff7 e73d
000000a0: 6e63 573c f35c 993d b920 ed3c 2e1b e63c
000000b0: 16a1 f8bd 9ad8 56be d13d 1bbe c837 4abd
000000c0: 6520 b23b e1a9 afbc dd47 ef3d 3bcb cfbd
000000d0: ca42 7f3d a765 a2be ba44 4e3d 4797 56bd
000000e0: 1ca5 f43d fa5b 4cbd 38f8 033d 6e50 84bc
000000f0: 4f0c 823a d4b0 62be bcd0 903d 3133 143e
00000100: 67fc 19be 8d18 c4bd 3533 43be 84de 0fbe
00000110: 0797 c1bc 2bdd ad3d 50c2 a4bd 7646 6ebc
00000120: adc6 36be 2438 2fbe 9370 8e3d d99b 01be
00000130: 77a5 523d a498 1dbe 05fa cbbd 03b0 03be
00000140: 31a1 e7bd d332 2abe cda8 57be d36b 36be
00000150: ab11 8ebe 5674 403e d34c a6bb 278d 0cbd
00000160: b6e2 06be e2f1 45be de2b da3d 1bb0 0bbe
00000170: c84c 6dbe 0811 3cbd 7bc2 e43c 4ef5 f33d
00000180: 2256 d73c c5c7 cabe da58 943c 7a6b 20bd
00000190: 2fd0 96be b5d6 6a3d fd18 d4bd 7583 5cbb
000001a0: 275d 293d e229 7ebe 9516 3bbe 68c0 b4bd
000001b0: 92ec 71bc 522b 4a3e 89e0 a3be e26f 5dbc
000001c0: 3ff2 a1bc 47cc 023d b761 56bd 5ff6 c2bd
000001d0: ce3a 2ebe e5d6 3dbe fad2 043d d4ad 95bd
000001e0: 4e7e b5bc 534e 9b3d a798 73be 101b 793e
000001f0: c280 3fbd 9e3e 2f3e 3080 523d 38b2 b3bc
00000200: 51ac d83d c73c 823d 6124 c83c 17b3 dbbd
00000210: 950a 373d b59a 8fbd 2b29 96be 4ee8 3fbd
00000220: 1d51 e53c aa6c 90bd b38d 5ebe 7dca 073d
00000230: 71d5 143c 52a9 18be e9be 983d f193 82be
00000240: 6985 193d d9e2 2cbe 31d1 93be b1c2 c1bd
00000250: ae89 103e 4297 b83d 23a7 61be 6c25 e4bd
00000260: e98a 3a3e a2aa 613d c6f2 f9bd 0cb4 a6bd
00000270: 369e a53d 3298 263d 85d6 eb3b c0bf d2be
00000280: 8efe 843b df22 743a cd51 713e aa6b c4bd
00000290: 662b 91be d4c6 0a3e 6510 80be daf2 c0be
000002a0: 34a0 51be a124 313d 5a83 d6bc ba3a 1f3d
000002b0: f93d 20bd f467 38be 0a49 023c 82b3 e6bc
000002c0: da2e b8be 94dd 17be a035 b2bc ea19 46be
000002d0: 0238 84bd b87d 80bd 9769 45bd c7c3 2d3c
000002e0: af63 21bd 7350 6fbd 76ec 04be 60ea b9bc
000002f0: 3221 e0bc 74a7 013e 4642 0e3e dcca 103c
00000300: 8831 a5be b08d 8bbe c47c a83d be4a 88be
00000310: 0508 d0bd 1009 f63d ac25 90be a802 ad3e
00000320: c891 22be 8124 36be 0217 33be 5004 9c3d
00000330: ce45 f7bd 8f29 ccbd 3b87 89be e290 80be
00000340: 6fb6 b8be 9ee2 febd a1c9 9c3b 2c93 68be
00000350: 6313 d5bd 8174 173d 5247 b9bd ca9d c63d
00000360: aabe 443e 42a9 a13d e132 1b3e 7ead 093e
00000370: c6a0 b43c 5d1a 56bc 8b1d 2ebe e358 6dbd
00000380: 8c95 3a3d 47d0 d8bd f9a1 70be e7ba e23c
00000390: 7023 26be 1c0b 73bd 9d1e c6be 5cad 0a3e
000003a0: 9221 23be 51a1 a2be 655c 2abe 1cb3 b1bd
000003b0: 072f ddbc d00f 84bd 312f a5bd a7b1 a53d
000003c0: 0667 cabd 3a0c 9b3c b7e9 7bbd f6a4 98be
000003d0: 6d1e 7fbe 8e12 1e3d 1e5e 273d 31b8 23be
000003e0: f794 c43d e739 253e 3d23 80bd 8d45 1b3e
000003f0: 6371 b03d f064 a43c 93dc e1bd d660 74bd

fc4.bias f4 [64]
0.052012786 0.042486187 0.0510256 -0.03348465 -0.04773306 -0.015619772 0.04474526 0.027138097
-0.05669326 -0.0466668 0.0119567085 0.08252428 -0.041041814 -0.058567815 0.080436155 -0.012601713
-0.0045630634 -0.049670868 -0.05798013 0.03052973 0.008862225 -0.03974264 0.0044497033 -0.08598321
-0.039743416 -0.044752 -0.046674386 -0.0029493256 -0.09728002 -0.006348623 0.0036760597 -0.05340429
0.01864102 -0.055409916 -0.06986972 0.008855264 -0.004686414 0.06633622 0.052550532 0.053980697
-0.04906531 0.07138422 0.037046578 -0.07910303 -0.072914764 -0.034963213 -0.0051506595 0.034832723
-0.08467488 0.014658667 -0.03794991 0.041237738 -0.070194654 -0.017657256 -0.033508163 -0.047138136
-0.038338587 0.08308644 0.07036762 0.024558432 0.055973478 0.043705307 0.07068173 0.02383754
00000000: 5c0b 553d ff05 2e3d 3800 513d 3327 09bd
00000010: be83 43bd 12ea 7fbc ce46 373d b750 de3c
00000020: 3137 68bd b025 3fbd 12e6 433c 7d02 a93d
00000030: 761b 28bd cee4 6fbd b6bb a43d 6a77 4ebc
00000040: c085 95bb ae73 4bbd 937c 6dbd 7c19 fa3c
00000050: de32 113c 2ec9 22bd d1ce 913b f717 b0bd
00000060: fec9 22bd e04d 37bd a42d 3fbd 7949 41bb
00000070: bf3a c7bd 1c08 d0bb 0cea 703b 75be 5abd
00000080: 0db5 983c 82f5 62bd db17 8fbd ab15 113c
00000090: 7d90 99bb 49db 873d 3a3f 573d dd1a 5d3d
000000a0: b5f8 48bd e431 923d 27be 173d c500 a2bd
000000b0: 5654 95bd 9635 0fbd ddc6 a8bb c2ac 0e3d
000000c0: 066a adbd e82a 703c 5d71 1bbd e7e8 283d
000000d0: 37c2 8fbd f3a5 90bc db3f 09bd eb13 41bd
000000e0: ec08 1dbd 3929 aa3d e61c 903d c42e c93c
000000f0: 7244 653d 5604 333d 95c1 903d f246 c33c

fc5.weight f4 [1, 64]
-0.0061713983 0.009105116 0.009844657 0.0686759 -0.0019324066 0.015497563 -0.16020678 -0.18407775
-6.526076e-05 -0.0057088993 0.011492629 0.044304617 -0.14182657 -0.22074753 0.00074251497 0.015351075
-0.20075862 0.094005644 0.012502022 -0.016677007 -0.65108734 0.017554542 -0.010593228 0.0019559907
-0.0068700328 -0.6111761 -0.013850269 0.005188252 -0.22721097 -0.0061001545 -0.014127207 0.052797344
-0.53340685 -0.03783052 0.01214803 -0.021180224 -0.61406535 -0.029493045 -0.2776216 0.01962118
0.028797861 -0.045461763 -0.020122442 -0.006593879 0.21249627 -0.026795993 0.0022084133 -0.007501866
-0.01825851 -0.18109371 0.16136073 0.0070604775 0.009909193 0.024542367 -0.0076281615 -0.036386747
-0.012620634 0.010600085 -0.009758201 -0.0060712816 -0.020168552 -0.0508319 0.021036753 -0.023395741
00000000: 7139 cabb a02d 153c 7c4b 213c f3a5 8c3d
00000010: ce48 fdba 7ee9 7d3c 3f0d 24be e17e 3cbe
00000020: 9bdc 88b8 b811 bbbb 944b 3c3c c278 353d
00000030: fc3a 11be a40b 62be 56a5 423a 1383 7b3c
00000040: ab93 4dbe 0886 c03d 48d5 4c3c 389e 88bc
00000050: a9ad 26bf 8bce 8f3c 388f 2dbc 1430 003b
00000060: 031e e1bb 0976 1cbf 3dec 62bc 3602 aa3b
00000070: fea9 68be cee3 c7bb cd75 67bc 0742 583d
00000080: 5a8d 08bf 2df4 1abd 8808 473c 2682 adbc
00000090: 6333 1dbf 669b f1bc 6b24 8ebe 99bc a03c
000000a0: 7ee9 eb3c 1d36 3abd d2d7 a4bc 7711 d8bb
000000b0: 9f98 593e 4583 dbbc 07bb 103b 37d2 f5bb
000000c0: df92 95bc a170 39be bf3b 253e 945b e73b
000000d0: 2b5a 223c 130d c93c a8f5 f9bb 450a 15bd
000000e0: c7c6 4ebc fbab 2d3c dde0 1fbc 9af1 c6bb
000000f0: 8538 a5bc 1c35 50bd 4555 ac3c 6da8 bfbc

bn1.weight f4 [512]
1.6295599 0.995227 2.32425 0.9649271 2.938737 2.2760592 0.5276576 2.6147096
1.0521082 2.8276632 1.5956652 2.5572035 3.181824 3.5539565 0.69329137 2.0736403
2.2689652 0.88368225 2.797151 1.4727154 2.379157 2.506922 0.46373424 0.5208954
3.1598358 0.44807273 2.532261 2.6136665 2.3902223 2.759564 0.7177848 1.6031039
0.6615864 1.9419922 1.1806608 1.8297185 2.6101136 3.201541 0.61197233 1.8723608
1.7192199 1.9829966 1.4709663 1.8074459 2.7505124 0.52358377 0.4099163 0.66668075
0.67645323 2.2878456 2.1970131 2.6654036 1.2689446 0.31467712 1.4190938 2.003102
1.8359355 1.886217 0.3999686 0.77348113 0.5805721 0.9338931 1.8073645 0.80789864
0.8464964 2.6862473 1.7274718 0.7094606 2.8784134 2.001801 0.5428823 2.162887
1.0321486 2.7224498 2.6069257 0.53813547 1.751979 1.0621799 2.6087801 0.6947371
2.6084826 2.5416174 2.287081 0.85184497 0.5692192 2.558103 1.8741015 2.5983012
0.76160103 0.5111603 0.7448839 2.366186 0.5862599 2.7057064 0.46011803 3.0247128
1.5513701 1.0639408 2.4027374 2.4765854 1.4612963 0.83728194 1.06961 2.7614717
3.0052757 2.6837938 2.9270916 1.5851165 0.9535812 1.760719 1.5025495 0.63632077
0.9762041 0.32316202 0.6460399 0.2704698 1.0558678 0.5037404 2.55648 1.1237407
2.5451095 0.88461006 2.592785 2.5843217 0.6524857 1.6027851 0.6797987 2.5493467
0.6029173 1.2816167 2.4422877 1.1341953 2.1639318 1.1070268 0.43064114 0.656896
1.9950364 2.6414218 0.6959438 0.7382674 0.908186 0.847887 3.044597 1.9164406
2.5768988 2.566005 1.9696172 1.2288971 2.6149817 1.0208234 1.3781959 0.6860594
1.208333 2.802353 0.55286056 1.0127318 0.9238731 2.6831744 1.0315113 2.1767073
0.8205478 0.47372517 2.5044227 1.8682231 2.551078 2.9467893 1.2576678 1.1116143
2.3946304 0.5431498 2.2679434 0.853054 2.2018356 1.0371819 2.184649 1.9661008
0.7914148 2.3096669 0.4233227 0.8437232 2.5208814 0.6768489 2.493034 0.7315966
0.38803774 2.9082277 2.1042216 0.9969916 2.2392905 2.0150728 2.2819064 1.4090428
0.6034243 1.9536735 0.8989118 0.9609135 0.70393074 1.0025305 2.5599582 0.7466637
0.41515982 2.3282044 2.6661494 1.1730583 1.0952663 2.1164222 2.1039228 2.3704176
2.6224287 0.97694457 2.034165 1.8831525 2.6653678 0.28761226 2.6696918 1.8347923
2.665533 0.8178557 2.9640355 0.16630909 2.0106094 2.4530015 1.8768878 2.7228343
0.5611431 2.633003 2.7265053 0.8145311 0.97739536 2.6394787 0.37840807 0.82767284
0.36197323 2.4167747 0.529414 1.938626 0.39291546 2.54792 0.7891061 2.5935678
1.337708 2.6034465 1.1782756 1.512086 2.3955042 1.0185461 0.72230667 0.6605766
1.3338164 2.758812 2.0787 0.2997618 3.3460958 2.9060693 2.7261508 1.0014685
00000000: 6b95 d03f 32c7 7e3f 83c0 1440 7605 773f
00000010: 4414 3c40 f4aa 1140 9214 073f 6757 2740
00000020: 7bab 863f 6ff8 3440 c23e cc3f 39a9 2340
00000030: 01a3 4b40 0674 6340 8b7b 313f 86b6 0440
00000040: ba36 1140 0039 623f 8604 3340 f081 bc3f
00000050: 1c44 1840 6971 2040 936e ed3e 6759 053f
00000060: c03a 4a40 ca69 e53e 9010 2240 5046 2740
00000070: 67f9 1840 b29c 3040 bfc0 373f 8232 cd3f
00000080: ba5d 293f 3393 f83f e51f 973f 3734 ea3f
00000090: 1a0c 2740 0ce6 4c40 38aa 1c3f 85a9 ef3f
000000a0: 660f dc3f d5d2 fd3f a048 bc3f 635a e73f
000000b0: 6508 3040 9609 063f 8de0 d13e 97ab 2a3f
000000c0: 0a2c 2d3f 106c 1240 dd9b 0c40 f995 2a40
000000d0: c76c a23f 5c1d a13e dea4 b53f d332 0040
000000e0: efff ea3f 8f6f f13f afc8 cc3e dc02 463f
000000f0: 60a0 143f 9e13 6f3f b857 e73f 72d2 4e3f
00000100: fdb3 583f 7aeb 2b40 cc1d dd3f 369f 353f
00000110: ed37 3840 821d 0040 56fa 0a3f be6c 0a40
00000120: 721d 843f 9e3c 2e40 dfd7 2640 3fc3 093f
00000130: d940 e03f 83f5 873f 41f6 2640 4ada 313f
00000140: 61f1 2640 dca9 2240 895f 1240 8312 5a3f
00000150: 59b8 113f f6b7 2340 8fe2 ef3f 914a 2640
00000160: 49f8 423f 67db 023f b6b0 3e3f 976f 1740
00000170: 2115 163f 4b2a 2d40 9794 eb3e e594 4140
00000180: 4c93 c63f 362f 883f 73c6 1940 6080 1e40
00000190: c20b bb3f 1c58 563f fbe8 883f f4bb 3040
000001a0: 7056 4040 47c3 2b40 7855 3b40 19e5 ca3f
000001b0: e61d 743f 3d5f e13f 8b53 c03f ebe5 223f
000001c0: 83e8 793f 7e75 a53e df62 253f 057b 8a3e
000001d0: ad26 873f 21f5 003f 5e9d 2340 bcd6 8f3f
000001e0: 13e3 2240 ce75 623f 30f0 2540 8765 2540
000001f0: 4e09 273f 1028 cd3f 4a07 2e3f 7f28 2340
00000200: ca58 1a3f 040c a43f 714e 1c40 502d 913f
00000210: dc7d 0a40 0eb3 8d3f ff7c dc3e 562a 283f
00000220: 5a5d ff3f 0e0d 2940 5f29 323f 18ff 3c3f
00000230: e17e 683f 1f0f 593f adda 4240 ed4d f53f
00000240: e9eb 2440 6d39 2440 6b1c fc3f 804c 9d3f
00000250: dc5b 2740 57aa 823f b968 b03f 97a1 2f3f
00000260: a8aa 9a3f c059 3340 4588 0d3f 32a1 813f
00000270: f382 6c3f 21b9 2b40 9008 843f 2c4f 0b40
00000280: 6c0f 523f 1b8c f23e 7648 2040 ef21 ef3f
00000290: dd44 2340 3298 3c40 42fb a03f 6149 8e3f
000002a0: a041 1940 de0b 0b3f fc25 1140 bf61 5a3f
000002b0: e0ea 0c40 60c2 843f 4ad1 0b40 31a9 fb3f
000002c0: 299a 4a3f 95d1 1340 c1bd d83e 3efe 573f
000002d0: 1f56 2140 f845 2d3f de8d 1f40 ea49 3b3f
000002e0: e2ac c63e 6720 3a40 91ab 0640 d73a 7f3f
000002f0: 8950 0f40 f4f6 0040 c10a 1240 845b b43f
00000300: 047a 1a3f f911 fa3f 151f 663f 6dfe 753f
00000310: ce34 343f eb52 803f 5bd6 2340 5a25 3f3f
00000320: d48f d43e 4d01 1540 31a2 2a40 c626 963f
00000330: b031 8c3f 7673 0740 aca6 0640 ecb4 1740
00000340: dfd5 2740 0a19 7a3f c22f 0240 240b f13f
00000350: 6395 2a40 ea41 933e 3bdc 2a40 79da ea3f
00000360: 1898 2a40 fe5e 513f c2b2 3d40 ee4c 2a3e
00000370: d3ad 0040 fafd 1c40 dc3d f03f eb42 2e40
00000380: 13a7 0f3f 1f83 2840 107f 2e40 1c85 503f
00000390: 9536 7a3f 38ed 2840 b4be c13e 5ee2 533f
000003a0: 8e54 b93e 70ac 1a40 ad87 073f e624 f83f
000003b0: 372c c93e 1f11 2340 db02 4a3f 04fd 2540
000003c0: 043a ab3f de9e 2640 bcd1 963f 098c c13f
000003d0: f14f 1940 b85f 823f 17e9 383f 8c1b 293f
000003e0: 7fba aa3f 6090 3040 6c09 0540 617a 993e
000003f0: 6f26 5640 0afd 3940 4179 2e40 1f30 803f
