attack_models/cifar10_resnet/attack_model_66.pt (torch, 737740 bytes, 25 tensors)

fc1.weight f4 [512, 10]
00000000: f020 2d3e 917e 143e 1515 aa3d e270 acbe
00000010: 0d15 3fbf 4413 1abe 9af3 4bbd 1798 d33d
00000020: 4179 1c3e 300a 8ebf 6002 373e 473a 533e
00000030: 2d7d 5f3e 5327 613e c607 113d ddc2 573e
00000040: 055e 54bf d6e0 453d a238 81bd 294b 47bf
00000050: 34e0 cd3d e502 e83d d03f 3bbe d034 033e
00000060: 6c59 af3d d7cf 78bf 13d0 00bf eb3e 1ebf
00000070: 2f71 f83d 6b00 e23d 4e14 503e f92b 783e
00000080: c59b 8a3e 6da1 50bf 9494 813e 2db4 73be
00000090: 091c 4abf f4da 2a3e 71ea 01bd a817 593e
000000a0: 2b46 d0be 5019 8fbe 34a4 79bf bd9d cd3d
000000b0: a7a9 963d 55ed 993d df9b 893d 75b1 6abf
000000c0: 8aa3 803d e907 5f3d b03c 263e c752 9a3d
000000d0: f8ea 5e3e 4431 683e 24a5 74bf 6927 4d3e
000000e0: 1a89 a93b 41c2 6c3e 7504 acbe a8ec 5f3d
000000f0: 91a8 143e eb7a 1f3e ede6 5dbf 8af3 3e3e
00000100: e498 1e3e 78c2 e93d f472 f7bc 66a9 68bf
00000110: bf6c ebbd f996 353e 181f 483e 908d 323e
00000120: c75a 67bf 62d2 75bf 8b53 583e faf4 433e
00000130: ceb3 713e 8afa 7bbe 23ed 503e ce7e 3c3e
00000140: ea78 2b3d bade fe3d 90c2 293e a1e6 3ebf
00000150: 8fb4 4b3d 2542 5bbf 8d0f 923d cbf3 153e
00000160: 5eb1 1c3e b694 0e3e f5ac a93c afdb 2e3d
00000170: 1b0b 85bf b743 95bc 0254 4ebf f402 34be
00000180: 6856 46bd 39d8 e13c 77f9 9dbe bdad 70ba
00000190: 94fd 523d 1307 c63d 1e82 3bbf 912b 943d
000001a0: 985a 9e3d 97a5 72bf 070d 72bf 6412 643d
000001b0: 2ed6 343d c6bb 9e3d 7076 ccbd 2a07 1e3d
000001c0: 597c c93d 9465 70bf c948 913d 5f4b 23bf
000001d0: 80d3 61bf a0f6 093d eff6 2b3d fee3 f03c
000001e0: d946 c0bc c139 573e 8f85 5d3e a0dc 643e
000001f0: 2098 87bd b997 5e3e 1358 5cbf 664b e2be
00000200: a8bd 85bc 77a1 4f3e c427 413e db67 a4be
00000210: 60fb 57bf 934d 1b3e 4774 3ebb bf25 65bf
00000220: f326 353e 34c6 4c3e 0959 323e bdfd ef3d
00000230: 0db9 8a3d c841 153e ed2d 73bf 8479 273e
00000240: 79a0 293e 350e ea3d f69c ca3d fb23 c93d
00000250: 401b 58bf 686d 103e 01c4 f03d 07ad 603d
00000260: 514a 88bf 842e 80bf dccf e73d d71e e73d
00000270: 87a7 183d d00d f63d f3fb eb3d 6986 5dbf
00000280: b664 153e 182a 133e 9178 033e 97bb fe3d
00000290: cf53 033e 2734 1abf e4d8 07be fd11 58bf
000002a0: 1830 b4be 7e20 073e 9c34 7b3e ca6d 653e
000002b0: a061 4cbf f81b 553e 5dcb 2e3c 4a77 83be
000002c0: a7d2 523e 93ea 453e a609 5e3e 0582 50bf
000002d0: 5d90 b03c e87d fdbd 1f90 8d3d c95f 8abf
000002e0: 74c6 48be 0677 5d3d f523 e93c 71f7 38bf
000002f0: ccd9 19be 2a24 873d 2d36 0dbe 0ff9 b03d
00000300: 44c9 4a3d c927 c33d 34bf 6ebf a9e7 8bbf
00000310: ad24 843d cef5 433d 213d 3d3d 7564 943d
00000320: 10cc 123e 31d9 203e e98a 1e3e 2951 103e
00000330: 3408 273e a3de e23d a4cd 6ebf 4937 89bf
00000340: 0a61 85be ff2b 303e 303a 2f3e 81eb 123e
00000350: 7ef8 1dbe 4ebe 65bf 32c6 183e 0fd1 203e
00000360: d498 923b 3935 2f3e 8471 f83d d0a6 78bf
00000370: 978a cd3c c996 c53d d35e 2bbf b651 82bf
00000380: 22a4 123e 1ac1 043e 8759 f23d 1105 3c3e
00000390: f10e bf3d 4f13 47be e340 73bd d1f8 5e3e
000003a0: 0010 493e 8300 653e a850 7dbf 5774 5c3e
000003b0: 15b5 633e faa5 3d3e 1160 483d 0f86 34be
000003c0: d9dd bfbc 24bc 98bc 1081 da3d 6df6 2d3e
000003d0: d467 70bf 3ea0 213e 8044 2e3e eec8 2d3e
000003e0: e7bc 33bd d20c 3c3e f914 493e 7854 343e
000003f0: 56fe 133e f7ac 253e 311d dbbc b4ed adbd
0.16907096 0.14501406 0.08304802 -0.33679873 -0.74641496 -0.15046412 -0.049792863 0.10331743
0.1528063 -1.1096859 0.17872 0.206277 0.21825095 0.21987657 0.035407804 0.21070428
-0.8295596 0.048310123 -0.0630963 -0.7784906 0.10052529 0.11328677 -0.18286061 0.12813115
0.08561978 -0.9719214 -0.50317496 -0.61814755 0.12130963 0.11035236 0.20320246 0.24235524
0.27071968 -0.81496316 0.2530867 -0.237992 -0.7894903 0.16685086 -0.03171772 0.2120043
-0.40678534 -0.27949 -0.9751618 0.10039852 0.07356577 0.075159706 0.06719183 -0.9167703
0.062811926 0.054450903 0.16234088 0.0753532 0.21769321 0.22675043 -0.95564485 0.20034565
0.0051738145 0.23120977 -0.3359715 0.054669052 0.14517428 0.15574233 -0.8668049 0.1864759
0.1548801 0.11414045 -0.030206181 -0.9088348 -0.11495351 0.17733373 0.19543111 0.17436814
-0.9037289 -0.96024144 0.21125619 0.1913642 0.23603746 -0.24607292 0.2040296 0.18407747
0.04186336 0.124448255 0.16578126 -0.7457066 0.04973274 -0.85647804 0.07131872 0.14643781
0.15302035 0.13923916 0.020712355 0.042689975 -1.0394014 -0.018220766 -0.80596936 -0.17579252
-0.048422247 0.027568923 -0.3085439 -0.00091811625 0.051511362 0.09669318 -0.7324542 0.07234872
0.07732123 -0.9478392 -0.9455113 0.0556816 0.04414957 0.07750659 -0.09983528 0.03858105
0.098381706 -0.93904996 0.07093961 -0.6378688 -0.8821335 0.033682466 0.04198354 0.02940559
-0.023471283 0.21018125 0.2163298 0.22349787 -0.066208124 0.21737565 -0.8607189 -0.4419815
-0.016325787 0.20276438 0.18862826 -0.32110485 -0.8436794 0.15166311 -0.0029061006 -0.8951072
0.17690639 0.19997483 0.17416777 0.117183186 0.06773577 0.14575875 -0.9499195 0.16354948
0.16565122 0.11428491 0.09893219 0.09821316 -0.8441658 0.14104235 0.11756135 0.05485251
-1.064768 -1.0014195 0.11318943 0.11285179 0.03726914 0.12014353 0.11522665 -0.8653322
0.145892 0.14371526 0.12838961 0.12438124 0.12824939 -0.6023583 -0.13266331 -0.8440245
-0.35192943 0.13195989 0.24531788 0.22405162 -0.79836464 0.2081145 0.010668603 -0.25676948
0.2058817 0.19327764 0.21683368 -0.81448394 0.021553213 -0.1237753 0.069122545 -1.0810481
-0.19606954 0.054068588 0.028459528 -0.72252566 -0.15024489 0.065986946 -0.13790198 0.08641254
0.049508348 0.09529073 -0.932605 -1.0930072 0.06452308 0.04784184 0.046200875 0.07245723
0.14335656 0.15707852 0.15482678 0.1409346 0.16311723 0.11077621 -0.9328253 -1.0719997
-0.26050597 0.17204283 0.1711204 0.1434765 -0.15426823 -0.89743507 0.14919356 0.1570475
0.004473785 0.17110147 0.121310264 -0.97129536 0.025090499 0.096479006 -0.66941565 -1.0181186
0.14320424 0.12964287 0.11833482 0.18361308 0.09329022 -0.1944096 -0.059388053 0.21774603
0.1963501 0.22363476 -0.98951197 0.21528755 0.22237046 0.18520346 0.04891974 -0.17629264
-0.023421215 -0.0186444 0.10669148 0.16988535 -0.9390843 0.15783784 0.17018318 0.1697118
-0.043881323 0.18364266 0.19636907 0.17610347 0.1445249 0.16179262 -0.026747318 -0.08492604

fc1.bias f4 [512]
00000000: 43d6 5d3e d28a 883e 0275 2a3e e5ac 963e
00000010: f23c 9bbe b81e f3bd 6da7 80be 2290 46be
00000020: fb65 25be f909 8abe c12b bebd 4f34 35be
00000030: 23cd 8f3d 969b 8bbe 5ebe 89bd 669f d53c
00000040: 488e fd3c ab6d fdbd 1bf5 ba3d 48be d43c
00000050: 1080 7cbe 04e4 f4ba 9bb6 4a3e 9f24 e8bd
00000060: 1126 6a3e c377 e63d f913 10bc 1a49 16be
00000070: 3b9e cf3d d720 bc3d a99c 103e 5fd1 0cbe
00000080: 0538 073e cdc2 31bd 4d37 c23c d976 53be
00000090: edd1 3c3e d600 853e cf0a 79be ec2e d43b
000000a0: 18a6 a9bb c152 a0be c409 bebd cf5e 1ebe
000000b0: aee6 b73d e732 c83d cd87 84be 61ec dd3d
000000c0: e809 84be 2455 373d 0a24 84be e86b 5dbd
000000d0: d330 013e 36b2 883d 65b3 5dbe 4a62 933b
000000e0: af58 e83d 1693 87b9 a1e9 c1bb 208a 3a3e
000000f0: a47b 123d 8af0 2b3e eacb 7a3c 7e81 6bbd
00000100: a5be 703e d817 15be abdb 3abe 939a bf3d
00000110: 1fe4 2b3e 0bce 273d 0584 a0be 0117 77be
00000120: 483f 45be d07d 863e 0b04 44be 616c 423e
00000130: 6d11 7d3e 3fa3 453e 500e a0be 77e3 613e
00000140: 222c 893e 727b a9be e4d2 4e3e 0a75 bebd
00000150: ca0c 9cbe d584 cbbd ed74 b3bd a837 08be
00000160: 46d5 723e d8e7 86be 2d41 bd3d ac08 73be
00000170: b473 6d3d db78 2fbe b5e6 42be 3007 7cbe
00000180: 8412 e53d 4b3b ff3d 221f 8a3e 53dc 75bd
00000190: 6c03 83be 07a7 fe3d 6b91 443d 56dc 273d
000001a0: 9ed2 dc3d f3a6 9ebe aaa0 d03d 4f61 8ebe
000001b0: dddd 43bd faf7 8b3e 7874 56be 9ca7 513e
000001c0: 86c6 313e cdf6 c2bd 3522 503d 20a4 4cbe
000001d0: 0f30 7f3e 1e83 95be aaf3 4fbe 113b ed3c
000001e0: 8684 6abe cf63 a5be 7b43 4e3d cdac c7bd
000001f0: e304 99be 6e5a 2b3e 7781 34bd 06b3 06be
00000200: 678f 29be f988 943e 1923 52be be8e f2bc
00000210: 62aa d13d da00 4a3e 60fc 08be 14f4 a1be
00000220: cc0d febd 03e4 dc3d 4d1c 8b3d 9783 87be
00000230: 00a5 d2bd df50 85bd 498a 99bd 42cf c73d
00000240: ebd9 5a3e 6ee8 6ebe 348b b2bd d968 5d3e
00000250: 71ac 173c d4ae 8dbe ac8d 8b3e efb8 98be
00000260: 0d3a a63e fc90 a93e d096 2cbe 569e 503e
00000270: 1bfb e3bd ab36 1a3d fc80 53be b7d1 74be
00000280: 373b 843e 382b 87be 758f 2b3d 99d9 353e
00000290: 3aa8 c53d da9e 84be fff5 9a3e ee66 043e
000002a0: 3e2d 073e 5b6f 863e 6971 a23e 596b 95be
000002b0: afeb 9dbe eadc 07be cfad 343e 5a62 c83c
000002c0: 4ce8 0ebe b9c9 d1bc 3275 a2be 156f 8e3c
000002d0: a503 c73c 0205 51be 936f 2fbc 45f9 833e
000002e0: 2ddc eebd 16cf 2d3e 0c7f 963e 4cc6 9cbb
000002f0: 974a 48be cabd ef3d 4f4d 04bc 66b3 9f38
00000300: b591 01be 56b4 d73d cdde 9dbe 515c 983e
00000310: 81be 9d3e d75e 643e caed b6be b8c3 433c
00000320: 421d 95be dd7c 7d3d 42b6 293e 991d 8a3d
00000330: 3374 10be 91c7 3fbd cb9a 2f3e 95de 383d
00000340: 596a 723e df64 9e3e 7fc3 97be 2f48 4fbe
00000350: c313 8cbe 6c08 88be d503 293e 1622 913e
00000360: db9a 963e 3f17 ec3d ef6d 8fbe 9c14 113e
00000370: 28d0 a43c 9f7e 4b3d c8da cebc e91b dfbc
00000380: 4979 5d3e c6ee 74be 02f1 8a3e 40bd 343e
00000390: 97a3 0dbd c2e5 443e 8a98 e2bd f38e dfbd
000003a0: 60ab f0bb a85c 20bc 375c 2abe 5240 513d
000003b0: b85c c0bd 73e3 9ebe 077c 773e e633 6f3e
000003c0: 2074 d93d 3b72 553d d0c4 823e 400e 6ebe
000003d0: 1977 373e de9f 87be e31b a7bd 4093 323e
000003e0: 71a2 8f3e 8cbe b03b c536 143e 4981 953e
000003f0: ed6f 0e3e 26b2 5d3e 67a3 043e d0fb 76be
0.21663766 0.26668411 0.16646197 0.29428783 -0.30319935 -0.118710935 -0.25127736 -0.1939092
-0.16152184 -0.26960734 -0.09285689 -0.17695735 0.070215486 -0.2726714 -0.06725763 0.026076984
0.030951634 -0.12374433 0.091287814 0.02596964 -0.24658227 -0.0018683677 0.19796221 -0.1133511
0.22866084 0.112533115 -0.008793824 -0.14676324 0.10137602 0.09185951 0.14122261 -0.13751744
0.13204964 -0.043398667 0.02370801 -0.20650806 0.18439455 0.259772 -0.2432053 0.00647532
-0.0051772706 -0.31313136 -0.092792064 -0.15465854 0.089795455 0.09775334 -0.25884858 0.10836101
-0.25788808 0.04475893 -0.25808746 -0.054057986 0.12616281 0.06674616 -0.21650465 0.004497801
0.1134504 -0.00025858794 -0.0059177433 0.18216753 0.035762444 0.16790977 0.015307406 -0.05749654
0.23510225 -0.14559877 -0.18247859 0.093556546 0.1678624 0.040967982 -0.31350723 -0.24129869
-0.19262421 0.26267862 -0.19142167 0.18986656 0.24713679 0.19300555 -0.3126092 0.22059427
0.26791483 -0.33101994 0.20197636 -0.09299667 -0.30478507 -0.09937445 -0.08762536 -0.13302481
0.2371417 -0.26348758 0.09240947 -0.23733777 0.05797167 -0.17135946 -0.1903332 -0.24612117
0.11185172 0.12462481 0.26976877 -0.06002457 -0.25588548 0.12434202 0.047990244 0.040981613
0.107823595 -0.30986747 0.10186894 -0.27808616 -0.047819007 0.2733763 -0.20942867 0.20474094
0.17360887 -0.0951973 0.050813872 -0.19984484 0.24920677 -0.29201597 -0.20307794 0.02895883
-0.22902116 -0.3230271 0.050357323 -0.09749756 -0.2988654 0.16733715 -0.04406878 -0.1315423
-0.1655861 0.29010752 -0.20521201 -0.02960908 0.10237576 0.19726887 -0.13377523 -0.3163153
-0.12404975 0.10785677 0.06792507 -0.26467583 -0.102853775 -0.065095656 -0.07497079 0.09756328
0.21372192 -0.23330852 -0.08717957 0.21622027 0.009257422 -0.27672446 0.27256525 -0.29828593
0.32466164 0.33118427 -0.16854405 0.203729 -0.11131879 0.03764979 -0.20654672 -0.23908125
0.25826427 -0.2640016 0.04188486 0.17758788 0.09651227 -0.25902444 0.30265805 0.1292989
0.13200852 0.26256832 0.3172715 -0.29183462 -0.30843875 -0.13267866 0.17644428 0.02446096
-0.13955802 -0.025608884 -0.31730038 0.017386952 0.02429373 -0.20412067 -0.010707754 0.25776115
-0.11663089 0.16973528 0.29393804 -0.004784381 -0.19559704 0.11706121 -0.008075072 7.6151264e-05
-0.12653239 0.10532443 -0.30834046 0.29757932 0.30809405 0.22301804 -0.35728294 0.011948518
-0.29123884 0.061886657 0.16573432 0.067439266 -0.14106826 -0.04682118 0.17148893 0.045134146
0.23673381 0.30936334 -0.2964134 -0.2024238 -0.27358827 -0.26568925 0.16505368 0.28346318
0.2941502 0.11527871 -0.2801356 0.14168018 0.020118788 0.049681302 -0.025250807 -0.027234988
0.21628298 -0.2391921 0.27137 0.17650318 -0.03457984 0.1922827 -0.11064251 -0.10915937
-0.0073446482 -0.009787716 -0.1663674 0.05108673 -0.09392685 -0.31032905 0.24168406 0.23359641
0.10617852 0.05211089 0.2554078 -0.23247623 0.17916526 -0.26489156 -0.08159616 0.17438984
0.2805362 0.0053938087 0.14474018 0.292002 0.13909884 0.2164999 0.12952958 -0.24119496

fc2.weight f4 [256, 512]
00000000: 7b0a 9c3d 20e2 a33d a6bb 98bd b6c0 94bd
00000010: ba7e c4bd f729 2dbd 96fa 8dbb 134b 3d3e
00000020: e2f2 9d3d a1e8 e83d 6040 cbbb 1ff7 3bbd
00000030: ff97 723b b55d 523e aef3 c13c 9816 0a3e
00000040: 3e33 423d f6bb 153e 6ab9 863c d351 8a3e
00000050: 070b 333a 2223 9fbd 7d7d 123e 20f8 2c3e
00000060: 04df 803e 0e1e ae3c 30c5 b6bd cfc5 7d3d
00000070: e0df 393e d94b a83d 949d 953d 60b0 6d3e
00000080: 1663 1d3e 89fd 983d 0770 ce3d f3a1 cc3d
00000090: 246e 7a3e ec42 733d 4ba4 703d da3a 253e
000000a0: f042 1dbd 08e6 963d e9e5 82bb bc73 a33d
000000b0: 878f 213d fcac 3e3e 3496 9fbd 3804 22bd
000000c0: e1c7 4a3e b660 dc3c e77d f93d 8113 fb3c
000000d0: 549f af3c 86a7 903e 48f1 2bbe f59b 2e3e
000000e0: b852 313e 0572 e63d ab4d 4c3e c801 c6bc
000000f0: 9957 873e 5845 703e ce49 d83c 9da0 223e
00000100: 10f3 183c 79b2 a4bd f8f8 d03c bd90 613d
00000110: 7882 de3c 7ed8 b63d ddc6 f73c f9b3 29bc
00000120: 1c83 973d f3a5 ef3c db6a 8d3d d001 03be
00000130: 54d2 743d 3767 45bd 9158 f83d 9290 553d
00000140: bafd d93d 9926 32bd 0023 9d3d 36a8 03bd
00000150: 7777 423e bd90 7cbd 5a46 cd3d 3af0 943e
00000160: a9e1 8a3d 5dfc 7fbc bc63 e73d 7c02 363d
00000170: 4ef4 2e3e a090 0e3e 281c 0dbd 2afd 30ba
00000180: db84 1d3e f62a 983d b471 163c 63c3 b23d
00000190: 5057 1b3e 3ba1 af3d 482f e33d bb00 183e
000001a0: 926b 863c abc8 003e c4ca 613d 2801 613d
000001b0: f199 ec3d b1be 323e b3a3 86bd 1788 0a3e
000001c0: bda1 9b3e d585 4f3e 79be fe3d 2462 763e
000001d0: f7fe c3bd e60a aa3e 3e29 13bd 87b0 7ebd
000001e0: 5a2a 223d 408a 3a3e 0f92 083e 4afd 673b
000001f0: 1684 063d bcd5 48bb 2002 6d3d 8ac4 d03d
00000200: a53d 9e3d 364e c43d fa7e 2b3e 982c 573e
00000210: 937c 313d ad8b 293e 425f 95bd e698 d2bc
00000220: d8c8 653d 3de3 05bd 0d03 32bc 91e7 6bbd
00000230: 9218 8e3d bc29 0a3e 7f45 6a3c ef1b 2ebc
00000240: a7f7 4c3e c146 3b3e 1a0c 543e 29bc 3abd
00000250: 0464 063d e86a 8c3e c943 c83d 03a2 333c
00000260: 4542 83bd 9f0a 233e 6184 233d 84e8 8fbd
00000270: 64bc c83c 847a a63d a5bb 7d3d 3b04 3f3d
00000280: 2ef8 173c de1d 373d f646 123e a249 443e
00000290: ec8d 3fbd 9730 633d 09c3 89bd ca41 393e
000002a0: 51bc 213e 1951 023e 9aad 9d3d f799 6a3e
000002b0: fb40 8dbc 04d4 3fbd ed55 c73c 8d8c af3b
000002c0: 6c1e 163b 081a 813c 41d2 dc3c 9f1d ca3d
000002d0: cbbc 513e e32c c43b deb7 313e eeef a5bd
000002e0: 9300 1d3e c7ae 613e 5087 733c f950 0c3e
000002f0: 0b47 b03d 861b a83d 0799 74bd 4f71 41bc
00000300: fcb3 a93d 3557 8e3e 97f8 083e ca20 02bd
00000310: 66bf 013f c664 633d 9112 a13e d773 33bd
00000320: 585f e9bc 44d6 1fbd a12d 293e 0446 99bc
00000330: bf51 fa3b e27d 703d adbf 2e3c 3590 113d
00000340: 3ead c43d 1957 cc3d e764 033d cee1 5aba
00000350: ca8b 143e 6720 c23e 156c 193e 5c08 63bd
00000360: 350b 2a3d 93ed 193d 349d f03c 85bf af3d
00000370: 5a54 183d 223a e23d 4310 7c3e 306d 2f3d
00000380: b5d1 debd 33c8 a53d 0d3f 103d f2a5 883a
00000390: 3123 123e be60 773d 88a3 843e 5678 80bc
000003a0: c25c a53c 6e7f e5bd f893 213c 7c72 f63d
000003b0: 0cbc c5bd d52b 0abd 86d7 0e3d 36f2 403d
000003c0: a9c9 143e 11c9 3dbd f4b2 0e3e d553 5d3e
000003d0: 5aa6 133e 0608 4dbd 83e2 f83d 4bc1 5b3e
000003e0: e837 ca3c a508 323e bbe5 483c 0478 f3bd
000003f0: e1d2 a1bc 5ec5 1b3d ccfb ae3d 8359 3c3d
0.076191865 0.08002114 -0.07457666 -0.07263319 -0.09594484 -0.04227635 -0.0043328507 0.1848567
0.07712342 0.113724954 -0.0062027425 -0.04588997 0.0037016866 0.20543559 0.023675766 0.13485181
0.04741215 0.14622483 0.016445834 0.27015552 0.00068299513 -0.07770373 0.14305682 0.16891527
0.25170147 0.021254566 -0.08924329 0.061956223 0.18151808 0.08217592 0.07305446 0.23211813
0.1536983 0.07470233 0.10079961 0.09991827 0.24456078 0.059389994 0.058750432 0.16135731
-0.038393915 0.07368094 -0.0039946926 0.07981059 0.03944352 0.18620676 -0.07792321 -0.039554805
0.1980281 0.026901584 0.12182217 0.030648949 0.021438278 0.2825281 -0.1679126 0.1705168
0.17316711 0.11252216 0.19951503 -0.024170771 0.2643402 0.23463953 0.02640238 0.15881582
0.009335294 -0.080418535 0.025509343 0.055069674 0.027161822 0.08928011 0.030246193 -0.01035785
0.07398054 0.029253935 0.06905147 -0.1279366 0.059770897 -0.048194136 0.12126268 0.052139826
0.106440976 -0.04349384 0.07672691 -0.03214284 0.18990885 -0.06166147 0.10023184 0.29089528
0.067813225 -0.015624133 0.1129832 0.044435963 0.17085382 0.13922358 -0.03445068 -0.00067515916
0.15382712 0.07430069 0.009182382 0.08728673 0.15170026 0.08575674 0.110930026 0.14844029
0.016408715 0.12576549 0.055125013 0.054932743 0.115527995 0.17455555 -0.06574192 0.13528477
0.30396834 0.20265897 0.124386735 0.24060875 -0.09570115 0.3321144 -0.035928003 -0.06218007
0.03959117 0.182168 0.13336967 0.0035398775 0.03284081 -0.0030644974 0.057863355 0.10193737
0.077266015 0.0958523 0.16747656 0.21013105 0.043331694 0.16557188 -0.072935596 -0.025707673
0.056099743 -0.032687414 -0.010864985 -0.057593886 0.0693828 0.13492483 0.014298796 -0.010626777
0.20016347 0.18288709 0.20707741 -0.0455896 0.032810226 0.27425313 0.09778554 0.01096392
-0.06409124 0.1592202 0.03992117 -0.07026771 0.024503894 0.08128837 0.06194653 0.046634894
0.009275479 0.044706218 0.14284882 0.19168714 -0.046766207 0.05546626 -0.06726653 0.18091503
0.15794493 0.12726249 0.076991275 0.22910295 -0.0172429 -0.046833053 0.024332965 0.005357331
0.0022906316 0.015759483 0.026955726 0.09868931 0.20482175 0.005986796 0.17355296 -0.081024036
0.1533225 0.22039329 0.014863804 0.13702764 0.086073 0.08208375 -0.05971625 -0.0118068
0.082862824 0.2780091 0.1337608 -0.03176955 0.50682676 0.055516027 0.31459478 -0.043811645
-0.028487846 -0.0390227 0.16521312 -0.018710144 0.0076391394 0.0587138 0.010665816 0.035537917
0.09603356 0.0997755 0.03207865 -0.00083496876 0.1450645 0.37915346 0.14982636 -0.055427894
0.041514594 0.037580084 0.029371835 0.08581451 0.03718982 0.11046244 0.24615578 0.04282874
-0.10879842 0.080948256 0.03521638 0.0010425432 0.14271237 0.060394995 0.25906014 -0.01568238
0.020185832 -0.11205946 0.009861939 0.12033555 -0.09655008 -0.033733208 0.034873508 0.04710599
0.14530052 -0.04633433 0.13935453 0.2161401 0.14418927 -0.05005648 0.12152579 0.21460454
0.024684861 0.1738611 0.012261803 -0.118881255 -0.019753875 0.03803002 0.0854412 0.045983803

fc2.bias f4 [256]
00000000: ed66 a83c dbf0 ee3c 6392 c7bc 9cbd 14bc
00000010: 3374 f03c ec7b 36bc da0b 5e3c 266b dc3c
00000020: 9ed6 4b3c 3533 d43c 2fec 05bc ed3a 1cbd
00000030: 5125 34bc a12c acbb aacf 0cbd 735a 003b
00000040: f905 62bc 1e88 11bd cac5 dd3c b800 f9bc
00000050: 6e9d e93a bc98 dabc 7d2d 1bbb daec 00bc
00000060: abc7 c63c 0fd2 98bc 20c2 813c 87bc efba
00000070: 3812 963c 25b2 853c 836c c639 47b9 123d
00000080: e2e3 77bc b1a5 dcbc 5c1a 243c 16a6 de3c
00000090: 71c7 9d3c 4ffb 04bc cf8d 42bd 2fc0 33bd
000000a0: ba1b d83c c618 213d d87a 2cbd 08da 073d
000000b0: d544 fbbc 1db5 363c f040 013d 02ea 3c3c
000000c0: 5037 babc 03ea b4bc eed7 eebc 43aa 19bd
000000d0: 9f10 04bd 045b 1d3d 8b0f 0fbd bd6f 21bd
000000e0: 8461 493d 48ba 98bc a486 01bd ccc3 d5bc
000000f0: 0d2c 143b 18e7 b2bc 0b6f 1a3d fab3 803c
00000100: d0e7 873c 37b1 0e3c 675c bb3c e358 24bc
00000110: 6055 363d 6342 0b3d 5b83 033d 6bba 203c
00000120: 608b 783a 1ba2 02bd 7bb5 f6bb 9cc0 ed3c
00000130: 5c5b f73c 0108 993b d2c6 f3bc 9ba1 b33c
00000140: f73d 193d 74eb 1c3c 5be6 c1bc 677b 833c
00000150: ad8d 35bc 62f9 e4bc 61b1 8cbc c84e 263d
00000160: 0ba6 f93b cb0c 0e3d b725 31bd e60a 2a3d
00000170: 03c0 2fbc 85df 5ebc 9fa6 b73a 6ef3 f53c
00000180: 3a10 c83c 99bd 20bd 2ce3 e2bb 36d4 b13c
00000190: 5d69 1ebd b747 71bc fb10 953b d889 673c
000001a0: 252d c23c 6821 f6bb d6bf 22bc 1cbb 20bc
000001b0: c26a 3c3d 714e d9bb b8fb 32bd 4401 953c
000001c0: f2e2 17bd 561d d23c 3be3 953b 281d c73c
000001d0: b0f6 a9bc a36b b0bc cfdd bcbc 4f1f e6bb
000001e0: f0a2 f83b 56cd 2d3d c470 073d 3698 3bbb
000001f0: b995 373d adcc bbbb b34c e0bb 0308 0b3d
00000200: 1b5b b1bc 4fc2 593c fc38 9abc c6c1 a3bc
00000210: ec49 183c 13dd 3a3c c3b4 2dbd 7aa8 01bc
00000220: 2be3 b63c 17ae cebc f071 a33a b79f 303d
00000230: aa26 313c e8f2 d4bc fb8b c8ba 3ea1 aebc
00000240: 40e0 18bd 10c2 0c3d 95aa 35bc a88a 253d
00000250: e325 04bd 7a15 a23c f5e2 c2ba bb48 1cbd
00000260: 19e4 22bd 339f 20ba a298 fb3c a7f2 49bb
00000270: 445f 3b3d 0494 87bc 9944 013d 8da2 db3c
00000280: 291c 043d 788f 903c 6beb 033d 2b9f 55bc
00000290: ffa9 093d c47c 723c acf6 9fbc bf41 0a3b
000002a0: 13fd bbbc 6d7e 063d 0870 5bbc ff6d cf3c
000002b0: f92c bbbc c069 0dbd 87e4 0c3d 4324 26bd
000002c0: dff8 863c bf67 343d 22e5 8cbc 0ac7 053d
000002d0: 024d bbbc 9a5c d8bc a838 c4bc c2b2 f73c
000002e0: 04a0 103d 1bab 893c 5291 33bd 7f81 9ebc
000002f0: fc1d 1fbd 7ba0 0a3d 0d11 223d 8e8c b5bc
00000300: c048 3abc c071 22bd f6fe 26bd 5245 973c
00000310: e6ad 1b3d 628e 9dbc db8d 8b3b 1576 063c
00000320: e89f ad3c 0233 c73b ed5f 3e3d 3b42 1abb
00000330: b216 dd3c c3f3 0f3a 0d39 ac3c 1033 303d
00000340: 33f0 f53c a5c5 893c 59ba f5bb 6e77 013d
00000350: 6bd9 f53c 041b db3c d5c9 23bd c22e 59bb
00000360: c36b 893c 84cd 2d3d 02df fd3c c38c bebc
00000370: 15a1 a13c fd4e 21bd 3c00 f83b 6cae 08bc
00000380: ca31 03bd ba58 bdbc 8fd8 33bd a1a1 f43c
00000390: 0d5f 1e3d 7f06 953c 022b 27bb de92 033d
000003a0: 4249 9a3c 1b9e 79bc 120e 80bc 8806 1bbc
000003b0: 5e41 fa3b 9feb 3b3d 98dd 62bc 9903 42bc
000003c0: 9489 253d 16b8 433b 9847 d9bc c085 09bc
000003d0: abd9 03bd d876 b63c f83f 39bc 194e a8bc
000003e0: 2da9 ee3c 1f7c fd3c 0e03 1d3d 3ba7 083c
000003f0: f4bc 12bd eb66 2fbc 34f6 0e3d 50ec 223d
0.020556891 0.029167583 -0.024361795 -0.0090784095 0.029352283 -0.011137944 0.01355263 0.026906561
0.012441305 0.025903324 -0.008173986 -0.038142134 -0.010995225 -0.0052543436 -0.03437773 0.0019585162
-0.013795369 -0.035530202 0.027071852 -0.03039585 0.0017823407 -0.026684158 -0.0023678236 -0.00786897
0.024265131 -0.018654851 0.015839636 -0.0018290438 0.018319234 0.016320297 0.0003784635 0.035821225
-0.015130015 -0.026934477 0.01001605 0.027178805 0.01926014 -0.008116557 -0.04749852 -0.043884452
0.026380409 0.039330266 -0.04210934 0.033166915 -0.03067247 0.011151579 0.03155607 0.011530401
-0.022731453 -0.022084242 -0.029155698 -0.03751589 -0.032242414 0.038416877 -0.034926932 -0.039413203
0.049165264 -0.018643513 -0.031622544 -0.02609434 0.0022609264 -0.02183871 0.037703555 0.01571082
0.016590029 0.0087092435 0.02287121 -0.010030958 0.044515014 0.03399886 0.032107692 0.0098100705
0.0009481218 -0.031892877 -0.0075289584 0.029022507 0.03019493 0.0046701436 -0.02975789 0.021927645
0.03741261 0.009577621 -0.023669412 0.016050054 -0.011081141 -0.027950946 -0.017174425 0.040602475
0.007618671 0.03468017 -0.04324886 0.0415143 -0.0107269315 -0.013603096 0.0014011449 0.030023303
0.0244218 -0.039243314 -0.0069240537 0.021707635 -0.0386747 -0.014726571 0.0045491434 0.014131986
0.023703167 -0.0075113066 -0.009933433 -0.009810235 0.04600025 -0.0066316654 -0.04369709 0.01818908
-0.037081666 0.025648754 0.004574207 0.024305895 -0.020747513 -0.0215357 -0.023054985 -0.0070227752
0.007587783 0.04243215 0.033066526 -0.002862466 0.04482052 -0.0057311864 -0.0068450808 0.033943187
-0.021649888 0.013290956 -0.018826 -0.01998986 0.009294968 0.011405247 -0.042408716 -0.007913703
0.022325119 -0.025229497 0.0012469869 0.043121066 0.010812441 -0.025994733 -0.0015300506 -0.02131712
-0.037323236 0.03436476 -0.011088033 0.040415436 -0.032262694 0.019785631 -0.0014868664 -0.0381553
-0.039768312 -0.0006127238 0.03071243 -0.0030814798 0.04574515 -0.016550072 0.03155956 0.026810909
0.032253418 0.017646536 0.032206934 -0.013038437 0.033609387 0.014800254 -0.019526802 0.0021096317
-0.022947824 0.032835413 -0.01339341 0.025321005 -0.022848593 -0.03452468 0.03439763 -0.040561926
0.016476093 0.044044252 -0.017199103 0.03266052 -0.022863869 -0.026411343 -0.023952797 0.030236606
0.035308853 0.016805222 -0.04383976 -0.019348858 -0.038846955 0.033844452 0.039567042 -0.022161748
-0.011369884 -0.03965926 -0.040770493 0.018465672 0.03800764 -0.019232932 0.004258854 0.008206864
0.021194413 0.0060790787 0.0464782 -0.0023538012 0.026988361 0.00054913404 0.021023298 0.043017447
0.030021762 0.016817877 -0.007499021 0.031608038 0.0300109 0.02674628 -0.039987404 -0.0033139442
0.016775018 0.042432323 0.030990127 -0.02326048 0.01973013 -0.03938197 0.0075683873 -0.008342367
-0.032029904 -0.023113597 -0.0439077 0.029862227 0.038664866 0.018191574 -0.0025507812 0.032122485
0.01883376 -0.015235449 -0.01563171 -0.009462006 0.007637187 0.045879003 -0.013846777 -0.011841678
0.040414408 0.0029864362 -0.026523396 -0.008393705 -0.032190006 0.022273466 -0.011306755 -0.020545052
0.029133404 0.030942975 0.03833299 0.008340652 -0.03582473 -0.01070569 0.034902766 0.039776146

fc3.weight f4 [128, 256]
00000000: 5a02 a83d 6cd7 ac3d 02c4 d53d 4239 673d
00000010: 5da6 ee3d c926 0fbe f639 dabb a410 d6bd
00000020: d9c3 8b3e f863 34bd c084 bbbd 989f e93a
00000030: 1e9d 473e 3bb6 813c 36bb 40bc caae 3dbd
00000040: 44c7 933b 422b c63d 818c 8c3e 666d 163e
00000050: 65de 2d3d 6bbf 713d 1832 8a3d 3b84 46be
00000060: 2131 083e 433a 73bd deef adbc 0172 8c3c
00000070: baf5 a53d 9fb2 153e 277e d4bd dbce 8d3d
00000080: 345c 453e 66a7 42be 90c5 bbbd 7901 3f3e
00000090: ec7b fcbc bfa6 06bd d0ce cebd f411 d83d
000000a0: b416 d5bd 2c18 853d fcb3 78bd 4d9b d13d
000000b0: 5879 19bc 4904 873e b03b c7bc 6806 ad3c
000000c0: ae11 82bd 88d6 f53d 0e04 17bd d183 30bd
000000d0: fbdf babd 8c18 9ebd 59ac bf3d fa7a 95bc
000000e0: dccb 7d3e c42c fb3d 3633 d43d 233b 06be
000000f0: 39ad 08be 0bd5 04bc 0f9e 2e3e ed6f 0b3e
00000100: 2e3f 5f3e 858f 33be a65c 113e e2cf fbbd
00000110: 66e2 45bd fd35 d73d 3a84 23bd 7d56 12bd
00000120: 985a 44be c41e cb3b 4cc3 9b3e 95ab 093d
00000130: d681 163e c6c9 4dbd a2df eabd 429e 30be
00000140: 13ae 1cbc 5cc1 823c 8ecc d8bc 1b95 e4bb
00000150: c32e 22bc 3c47 0bbe 07a9 6b3d 1f03 f03d
00000160: cf63 7bbc f1f4 84bd eab6 8d3d a40e 08bd
00000170: af7e 9ebc df8d cf3d 7e25 d73c 88c8 81bb
00000180: 88f5 1f3d 9b40 993e d368 31be 393e 753d
00000190: 5a1b a03d 464f 413e b2a2 9b3e b6ad f23c
000001a0: 6e81 de3d 3d1f 853e 8050 b7bc 25b8 9cbc
000001b0: c896 393c 1ddc 803e 05a5 d3bc 6d3a ae3d
000001c0: 9b65 cc3d 1eb6 fe3d a7f8 0c3e db93 f73d
000001d0: c480 82bd d04f f13d 1999 b23c 4274 8cbd
000001e0: 3167 473d 6475 a83d 6cb8 df3d bb9e 3bbd
000001f0: 5f8c 6a3d ce26 dc3c a6c0 b2bd 97fa c4bc
00000200: db27 3bbd 3d0a ef3d 0417 a9bd 5160 87bd
00000210: c3da 423e 5624 17bd 39cc 233e be3c d73d
00000220: 0545 fa3d edda 0d3e b087 4dbd 3c45 503e
00000230: 148f 61bd f1f3 3cbd 6128 50be 5f8b 513e
00000240: 371a 973c 96ae 9dbd aada 1ebe b2b4 833d
00000250: 26a2 04bd 1d49 673d 3881 243e a79e 893d
00000260: 3304 bcbd 5748 f0bd 1373 14bc a7c2 4a3e
00000270: fe43 3f3d 3844 303d e081 f43d 5880 11bc
00000280: 9aaa 3bbe acb6 a73d f74f 9d3c 0a09 2fbd
00000290: edb0 77bd 4a8a 74bd d5f3 47bd fa2b b63c
000002a0: 0a89 363e 5d65 84bd 0933 ad3c acde 8a3e
000002b0: e5c6 2f3d 64f4 623e 6f2f 8cbd b9aa 573e
000002c0: d83a 00bc 8a63 3cbe a73a 203e eaca 4a3d
000002d0: d16d bebd d5b1 87bc cb50 033e 0f66 013e
000002e0: a30f 913d f1ce 443d 1014 b7bd cd11 86bd
000002f0: a409 53bc bd45 073e 0f12 8abd d69f d5bc
00000300: 4cbe 9dbd 5cf2 7a3d a6fe 403c 12e5 083e
00000310: db48 11bd e91d f8bd 77b1 0c3c 79c8 c9bd
00000320: 3934 713d 19d4 d3bd 1b6a 30bc d2ad 053d
00000330: 9559 5d3e a0f7 1c3e 90d5 4bbe 793c d63d
00000340: f535 f63d 4860 b33d f9ce 543c be24 10bc
00000350: b239 4fbd 2c6b a4bb 2fa0 d53d b44e b2bd
00000360: 3616 4dbd d3b8 283e c5ff 363e 7261 aa3d
00000370: 6849 a03c c320 483d cb7b e63c 7a87 30bc
00000380: a5ba bc3d 9647 16be 8f31 a4bc d508 63be
00000390: a9f3 48bb 3740 573d e119 3f3c 6ea3 12bd
000003a0: d291 79bd cf9e fa3b b08f 34bd bbd4 aabd
000003b0: d770 0f3e 7260 a03d 9e54 373d e2b2 a8bc
000003c0: 0d81 993d 6714 e53c 3d20 f5b8 c04d a6bd
000003d0: 9de4 093e 6279 3ebd 7778 14be a424 cfbc
000003e0: 49cd 44bc a6b6 33bd e745 e03d c899 793d
000003f0: 522d 09be 9b7a 003d 62f2 133d 17df 7c3e
0.082035735 0.08439526 0.10437776 0.05645109 0.11652825 -0.13979639 -0.0066597415 -0.10452393
0.27297857 -0.04404065 -0.091561794 0.0017824052 0.19493529 0.015833965 -0.011763385 -0.04630927
0.0045098383 0.096762195 0.27450946 0.1469017 0.04244842 0.05902044 0.06747836 -0.1938638
0.13299991 -0.059381735 -0.021232542 0.017144205 0.08103509 0.1461892 -0.10375624 0.0692422
0.19273454 -0.1900917 -0.091685414 0.18652906 -0.03082081 -0.032873865 -0.1009804 0.10550299
-0.10404721 0.06498751 -0.06071852 0.102346994 -0.0093673095 0.26370457 -0.024320453 0.021121219
-0.063510284 0.12003809 -0.0368691 -0.04309446 -0.09124752 -0.07719526 0.093590446 -0.018247116
0.24784797 0.12264398 0.1036133 -0.13108496 -0.13347329 -0.008107434 0.17052482 0.13616915
0.21801445 -0.17535217 0.14195499 -0.1229551 -0.048311614 0.10508344 -0.039921023 -0.035727013
-0.19175184 0.006198736 0.30422437 0.0336109 0.14697966 -0.050241254 -0.11468436 -0.1724787
-0.009562987 0.015961342 -0.026464727 -0.0069757826 -0.009898844 -0.13601393 0.057534244 0.11719345
-0.01534362 -0.06492031 0.06919654 -0.033217087 -0.019347517 0.10134482 0.026262995 -0.0039606728
0.039052516 0.29932103 -0.17325144 0.059873793 0.07817717 0.18877897 0.30397564 0.029623847
0.108645305 0.26000395 -0.022377253 -0.019130776 0.011327453 0.25167933 -0.025835523 0.085072376
0.09980317 0.1243708 0.13766728 0.12088748 -0.06372216 0.11782801 0.021801518 -0.06858112
0.048682395 0.082255155 0.109238476 -0.045805674 0.057262775 0.026873972 -0.08728151 -0.024045272
-0.045692306 0.11671875 -0.08256343 -0.06610168 0.19028763 -0.036899887 0.15995874 0.105096325
0.12220196 0.13853045 -0.05017823 0.20338911 -0.05506809 -0.04613108 -0.20327903 0.20463322
0.018445117 -0.07699315 -0.15513101 0.06430949 -0.0323812 0.05646621 0.16064918 0.06719714
-0.091804884 -0.11732548 -0.009060639 0.19800816 0.0466957 0.04303381 0.11938834 -0.008880697
-0.18326798 0.08189139 0.01920317 -0.04273323 -0.060471464 -0.059702195 -0.04881652 0.022237767
0.17825714 -0.06464646 0.0211425 0.2712301 0.04291429 0.2216354 -0.06844985 0.2106122
-0.007826529 -0.18397346 0.15647374 0.04950992 -0.092982896 -0.01656429 0.12823789 0.12636589
0.070830606 0.048048917 -0.089393735 -0.06546364 -0.0128807165 0.13210197 -0.06741726 -0.026077192
-0.07702312 0.06126629 0.011779463 0.13368633 -0.03546987 -0.1211508 0.008587233 -0.0985269
0.058887694 -0.10343189 -0.010767485 0.03263647 0.21616204 0.15328836 -0.19905686 0.10460753
0.1202201 0.087585986 0.012988799 -0.0087978225 -0.050592132 -0.0050176587 0.10430943 -0.08706418
-0.05007001 0.16476755 0.17871006 0.083193675 0.019566253 0.04885937 0.028135201 -0.010774488
0.09215287 -0.14675745 -0.020043163 -0.22171338 -0.003066281 0.052551474 0.011663885 -0.03580039
-0.06093008 0.007648326 -0.044082344 -0.08341356 0.14007889 0.078308955 0.04475843 -0.02059311
0.074953176 0.02796383 -0.00011688515 -0.081202984 0.13466115 -0.04650248 -0.14499079 -0.025286026
-0.012011834 -0.04387536 0.10950833 0.060937673 -0.13396195 0.031366926 0.036119826 0.24694477

fc3.bias f4 [128]
00000000: 0f60 d3bb 26b5 63bd 7f6b 893c 716d 6a3c
00000010: 3174 52bd 322f 093c 4876 09bd b8d6 5e3c
00000020: 2007 ff3c 4550 6cbd 47fc 3b3d dbd7 5b3d
00000030: 1e9a f13c 07bf 5c3c b63b 08bd 787b 143d
00000040: 7fb1 4d3d be95 2fbc 3612 2fbd c351 e33c
00000050: 2afe 4d3d aded 183d 7194 15bd 9af6 5a3d
00000060: 3129 59bd 33ac fd3c 7b51 babb c62c 18bc
00000070: 8c9c 213d bb96 4bbd 5abd fcbc 05da 8abc
00000080: f01a 533d ef5c afba 2f12 333c bd2c 7bbd
00000090: 0148 763d cb4c 333d 7c0c 63bc 6f78 d83c
000000a0: 2ef4 98bc 2224 17bd 247d 2dbd 16e9 a43c
000000b0: 8886 ad3b c45a 253d a464 103c 4991 5bbd
000000c0: ce36 df3b c691 573d 74ea 153d f124 5c3d
000000d0: 458e 4ebd fc42 773d bbef c4ba fc72 3b3d
000000e0: 3f80 613d 643b 2f3c e393 513d 8431 41bd
000000f0: 53b1 ef3c 98fa d1bc 68e3 17bc 005f 1d3d
00000100: 978e 01bb 62b4 f83b a3c3 66bd f223 7b3b
00000110: 8b3e 013d 6167 9c3c 08fa 62bd 0493 14bd
00000120: 95e3 533c cfba 0c3d d72e 7dbd 147c 25bc
00000130: 459d 5abd 4751 9ebc 8394 63bc 091d 743d
00000140: 25ca 29bd 647c e73c f3bd 803d ed22 e4bb
00000150: 5cf2 193d e25f 26bc 9f27 1d3d 7471 a5bc
00000160: cc80 6b3d 2eb7 fbbc 4f33 78bd a532 2e3d
00000170: 84b6 d4bb f372 723d 1fa8 df3c e9c1 2fbc
00000180: a360 79bd fed7 47bc 961f d23c 3f51 30bc
00000190: 3ea6 d0bb fda2 d2bc af1d 603d 18ca bbbc
000001a0: 91b7 4dbd 2217 1fbd ea92 483d 3540 173d
000001b0: 5818 31bd 8b6b 773d dd71 3b3b 232d f2bc
000001c0: 7e20 ee3c 9273 9e3b ee25 b43b 9d7c 82bd
000001d0: 2c07 19bd 51de b83c dcfa 95ba d942 1fbd
000001e0: 759d 473d cacf 693d 56d5 69bd f69a 503d
000001f0: b4c1 1a3d 7e82 51bd b0cf 2d3d a3c5 773d
-0.00645066 -0.05559268 0.016774891 0.014308319 -0.05138034 0.008373069 -0.033560067 0.013600998
0.031131327 -0.05769374 0.045894887 0.053672653 0.029492434 0.013473279 -0.03326007 0.03625056
0.0502181 -0.010716854 -0.042741977 0.027748948 0.050291218 0.03733604 -0.036518518 0.053457834
-0.0530178 0.0309659 -0.0056859828 -0.009288019 0.039455935 -0.049704295 -0.030852009 -0.016949663
0.05153936 -0.0013379137 0.010929628 -0.061321963 0.060127262 0.043774407 -0.013857957 0.026424615
-0.018671121 -0.036899693 -0.04235567 0.020130675 0.0052955784 0.040369764 0.008813057 -0.05360535
0.006811953 0.052629255 0.036600545 0.053746168 -0.050428648 0.060366616 -0.0015025059 0.045763955
0.055053946 0.010695312 0.051166426 -0.047166362 0.02925936 -0.025632188 -0.0092705265 0.038420677
-0.0019768828 0.0075898627 -0.056338917 0.0038320986 0.031553786 0.019092264 -0.05541423 -0.036273018
0.012932678 0.034357842 -0.061812248 -0.010100383 -0.05337264 -0.019325865 -0.013890388 0.059598003
-0.041452546 0.028257556 0.0628623 -0.0069621713 0.037584648 -0.010154696 0.038367864 -0.0201957
0.057495877 -0.030726995 -0.060595807 0.042528767 -0.006491484 0.059191655 0.027301846 -0.010727384
-0.060883176 -0.012197493 0.025649827 -0.010761558 -0.006367474 -0.025712484 0.05471581 -0.022923514
-0.05022389 -0.03884042 0.048968233 0.036926467 -0.043236107 0.060405295 0.0028601803 -0.029562538
0.029068228 0.0048355544 0.0054976856 -0.06371424 -0.037360355 0.022566946 -0.001144256 -0.03888211
0.048734147 0.05708293 -0.05708822 0.050929032 0.037782386 -0.051149838 0.042434394 0.060491215

fc4.weight f4 [64, 128]
00000000: 1261 6fbc b6f5 993c a697 11be 9e41 0e3e
00000010: 143d 4bbe a7d1 2a3e f918 afbe dbbe 4b3d
00000020: e309 073e 4557 5ebd a867 fb3d 3f56 10be
00000030: 421d 623e fbb6 a2bd de5b e03d a2c5 e73d
00000040: 472c b13d a226 3c3e 698c 5fbd fe2f 1bbd
00000050: bd81 a43e bde3 95bd 2fd9 f23d 255f dfbd
00000060: d485 2d3e 3583 eb3d 36c2 953d c912 a83d
00000070: e1a3 fc3d 3589 20bd 4696 d93c 273d 64be
00000080: 5550 993c bb3b 313d 9956 8cbd dbb0 50bd
00000090: 46b5 ed3d 313c 55be f4a8 5abe e203 56be
000000a0: 567d 6abd f026 84be 22c5 41bd bada 4ebb
000000b0: a7cd 13be 68f4 88bd 2188 e63b 5d9a b0be
000000c0: 0d01 53bd 340a a5bd ff47 443e 9c5b c5bc
000000d0: 275b 943c f556 c73d aebc b7bd 363f 3ebe
000000e0: 393d d83d 5252 753d d3cf 2abe 8d88 7cbd
000000f0: dc06 20be a278 6ebd 1b6f d53c ee56 083e
00000100: d1f6 c93d 315b 0a3e c25a 553d 84e5 05bd
00000110: 1f55 0abe e901 2ebe 61a8 863b e26c a2bc
00000120: 8e40 dbbd d007 91be 3ef0 063d a99e 843d
00000130: a77c 533e d801 533d f31f 583e 52a0 07be
00000140: 1182 183e 06fe 8fbe 70aa a63d c013 1fbe
00000150: ca57 82bd 640d af3c 0e63 fc3d 3687 b8bc
00000160: 4989 603d 0895 48bd 12dd b7bc 76d7 38be
00000170: aaff fbba 63b4 41bd 6050 31be 6694 14be
00000180: 1d80 4f3e f360 0d3e a1c0 e6bc d189 10be
00000190: 4ca1 073e d543 b8bd cdde 83be 65fa cf3d
000001a0: a387 0a3e 4d05 3ebe 586a fb3d 46aa b4bd
000001b0: 7cf1 dabd 36e2 753c 7d4c 113e 2636 41be
000001c0: 42d9 423e 9d1c f8bb 9147 013e c3bb 173e
000001d0: 3f04 46be 3005 053c c542 dd3b 1116 b73d
000001e0: 8088 973d d312 913d d9a0 b9be 9fcc 44be
000001f0: 7456 1ebe 2769 79bd 381b f9bc 005d 313d
00000200: 20a1 f23d c649 d2bc a15f 9abb 5738 bebd
00000210: 16d6 7b3c 50cd 56be eb1c 193e f912 42be
00000220: e9ad 47be 3f7d 46be 47ca 17be 0d81 a4bd
00000230: 32b2 21bd 8edf 08be 00a7 483d 0556 81be
00000240: 07f1 56be ebfd 49bc 9c77 323d 5f81 353d
00000250: 019a adbe 9e1c 1b3d 0452 afbc bff4 ac3c
00000260: 4d5d 00bd c971 52be 0b27 63be 9904 b7bd
00000270: e4d2 cbbe 6390 8c3d 187d 5f3d 25c4 0f3d
00000280: 6497 05be 0d71 073e 1c8a f23c d99d 0ebd
00000290: 20fc 06be eb3e 473d 9116 2d3e 76e0 d63b
000002a0: 1085 0abe 08e9 1c3e 4a0b f93d 9dc1 d03d
000002b0: 2872 b63d e5ee d5bb 67da 7cbd 8aba ce3d
000002c0: 34a1 29bd cf25 213e 47a7 abbe ede5 f0bd
000002d0: 387c 553e e2b3 67be 5c04 773d f14b 933d
000002e0: fca0 0fbe 3fe2 703d 02c3 153d 57b6 8f3d
000002f0: be18 ad3d 1b85 ab3d 65fb 4dbe 2703 31be
00000300: bab8 b4bd 5543 b03d 88af 3a3d a2e5 9bbd
00000310: 076f 003e 41be 363e fb8e 2abe 3ebc 4fbe
00000320: b689 bf3d 612f 1c3e 15fd 71bd 5e3d a33d
00000330: 22c1 e5bd 8e65 35be 59fd 1dbe 954e 2ebd
00000340: 56b8 99bd bb14 6e3c 7230 4bbe d419 583e
00000350: 8683 393e 5cf4 fd3c 8689 86be 9fac 1ebe
00000360: 81ba 84be 83d9 993d 7fe2 5ebe f09e 2b3e
00000370: 1700 593c 8dfb e13c d26a efbc 865c 14bd
00000380: 914a 15be e0bb 07be a3b4 6fbd ca59 2dbd
00000390: 2d46 22be 3af3 20be ea7d 4cbd 4076 c43d
000003a0: 9185 72be 9a92 543d 0736 61be 6b80 6d3b
000003b0: 2295 44be 3cb0 ca3b 6c0b 28bd a686 febd
000003c0: caf2 0abe 0ec6 ddbc 4a56 14be 2d8a 68be
000003d0: 8c04 e5bc 412e 8d3d b180 8ebe 9904 d3be
000003e0: 8632 a1bd 2dfe aebe f799 953d 3e97 e03d
000003f0: d847 ddbd b07b 31bd 5867 293e d0fd a0bd
-0.014610546 0.018793922 -0.14218006 0.13892218 -0.19847518 0.16681539 -0.3419874 0.04974256
0.13187365 -0.054282445 0.1227563 -0.140954 0.22081473 -0.07945057 0.10955022 0.11316992
0.08651023 0.18374112 -0.054577265 -0.037887566 0.32130232 -0.07318828 0.11857831 -0.10906819
0.16945583 0.11499635 0.073124334 0.08206708 0.12335945 -0.03919335 0.026560914 -0.22288953
0.018715063 0.043269854 -0.06852455 -0.050949913 0.11606841 -0.20823742 -0.21353513 -0.20899919
-0.057248436 -0.25810957 -0.04730714 -0.0031563477 -0.14433919 -0.06687242 0.007035271 -0.3449277
-0.051514674 -0.08058587 0.1916809 -0.024091534 0.018109871 0.097333826 -0.08971535 -0.185788
0.10558552 0.05989296 -0.16680841 -0.061653662 -0.15627617 -0.058220513 0.026053956 0.13314411
0.098615296 0.1351135 0.052088507 -0.032689586 -0.13509034 -0.16992916 0.004109428 -0.01982731
-0.10705672 -0.28326273 0.032943957 0.064755745 0.2065302 0.05151543 0.21105938 -0.13244751
0.14893366 -0.28123492 0.08137977 -0.15534878 -0.06364401 0.02136869 0.12323581 -0.022525411
0.054818425 -0.048970252 -0.022444282 -0.18050942 -0.0019225974 -0.04729117 -0.17315817 -0.14509735
0.20263715 0.13806514 -0.028168024 -0.14115073 0.13245124 -0.08997313 -0.2575592 0.10155181
0.13528304 -0.1855671 0.12276143 -0.088215396 -0.10690591 0.015007546 0.14189334 -0.18868312
0.1902819 -0.0075717703 0.12624957 0.14817719 -0.19337557 0.008118913 0.0067523443 0.08939756
0.07399082 0.070836686 -0.3625553 -0.19218682 -0.15462667 -0.060891297 -0.030408487 0.043301582
0.118471384 -0.025669944 -0.004711107 -0.0928809 0.015370866 -0.20976758 0.14952438 -0.1895255
-0.19499935 -0.19383715 -0.14823256 -0.08032427 -0.03947658 -0.1336653 0.04898739 -0.2526094
-0.20990382 -0.012328605 0.0435711 0.04431283 -0.33906558 0.03786909 -0.021401413 0.021112798
-0.03133898 -0.20551218 -0.22182862 -0.08936424 -0.39809334 0.06863477 0.054562658 0.035099167
-0.13046032 0.13226719 0.029606871 -0.034818504 -0.13182116 0.048643988 0.1690314 0.0065575195
-0.13527322 0.1532327 0.12160356 0.10193179 0.08908492 -0.0065287226 -0.061731722 0.10094173
-0.0414135 0.15737079 -0.3352606 -0.11762605 0.20848167 -0.22627214 0.06030689 0.07192219
-0.14026254 0.058809515 0.036562927 0.070172004 0.08451985 0.08374997 -0.2011543 -0.17286359
-0.08824296 0.086065926 0.045577556 -0.07612158 0.12542354 0.17846014 -0.16656105 -0.20286652
0.09352438 0.15252449 -0.05907925 0.07970689 -0.11218478 -0.17714521 -0.15428676 -0.04255541
-0.075058624 0.01453131 -0.19842699 0.21103603 0.18116578 0.031000309 -0.26276797 -0.15495537
-0.2592354 0.0751219 -0.21766089 0.16759849 0.01324465 0.02758577 -0.02922574 -0.03622105
-0.14579226 -0.13255262 -0.058521878 -0.042321958 -0.15847082 -0.15717784 -0.04992477 0.09592867
-0.23683764 0.051897623 -0.21993266 0.0036239873 -0.19197515 0.0061855596 -0.041026518 -0.12428026
-0.13569179 -0.027071979 -0.14486042 -0.2270896 -0.02795627 0.06893588 -0.2783256 -0.41214445
-0.07870965 -0.34178296 0.07304757 0.10966347 -0.10804719 -0.04333085 0.16543329 -0.07860911

fc4.bias f4 [64]
00000000: 3714 983d 69f6 203d 6965 9bbd b337 6a3c
00000010: 88a5 70bc 4275 a33d 691f 8f3c cfbd b4bb
00000020: 5bbe b6bb a5e3 a73d d599 72bb a67c 9a3d
00000030: d17e 98bd f2ed 6b3d 00ce 493d b6e8 a2bc
00000040: 8885 68bd 7d4f be3c 8a33 8ebd b26e 763c
00000050: 3493 983d 31bd 46bc 114e 00bb 1296 8cbd
00000060: 4a16 94bd 8aeb 783d cd62 7bbd d0f3 7abc
00000070: 3b22 9abd 830d 66bd a61c 913c 3fe4 cebc
00000080: d098 bdbc e0be 9d3d a46b 46bc 8359 8f3c
00000090: ea5c 84bd 8548 2c3d f928 0ebd 3742 59bd
000000a0: 5b03 803d 753b a0bd e906 5b3c a7cd 95bd
000000b0: d913 71bc 4c3c f13c 2a87 8b3d 76e8 47bd
000000c0: 3bd0 21bd 5561 9cbc 505d 95bd 88da 06bd
000000d0: 6718 b13d fda7 13bd 966e e8bb c648 a2bd
000000e0: a7ea bbbc a160 81bc 6807 eebc ec16 183c
000000f0: 822a 46bc 0aa9 b8bd 5b3f 913c ab1c c43c
0.07425731 0.039297495 -0.07587702 0.014295506 -0.014687903 0.079813495 0.017471032 -0.005515791
-0.0055768914 0.081977166 -0.003701796 0.07543306 -0.07446063 0.05759997 0.049268723 -0.019886356
-0.05676797 0.023231262 -0.06943424 0.01504104 0.07449952 -0.012130068 -0.0019577781 -0.06864561
-0.07230814 0.060771503 -0.06137352 -0.0153169185 -0.0752606 -0.05616523 0.017713856 -0.02525532
-0.023144156 0.07702422 -0.012110624 0.017498737 -0.064630345 0.042061348 -0.034707043 -0.053041663
0.0625064 -0.078238405 0.013368347 -0.07314616 -0.014714205 0.029447697 0.0681289 -0.048805676
-0.039505225 -0.01908938 -0.072931886 -0.03292325 0.086472325 -0.036048878 -0.007093261 -0.07924037
-0.02293904 -0.015793147 -0.029056266 0.009282809 -0.012095096 -0.09016617 0.017730406 0.023939451

fc5.weight f4 [1, 64]
00000000: 05c0 153d bbb9 193d 70d0 393d 2fd8 d7be
00000010: 6e2d d3be b6d0 293d fba5 83be f472 0abf
00000020: 12ac 1a3d 402f 0b3d eed9 eabe 5fc2 343d
00000030: 027d ab3b 5f2f 3d3d 1ea4 143d e655 933c
00000040: a0cf 0f3d 78f2 05bf 9511 cd3c f3ac 003d
00000050: f302 fa3c de61 e8be c169 f8be 7531 403d
00000060: 3381 243d f24a d03c a57e 0b3d d75d bb3c
00000070: 7288 673d e5e5 d33c 9611 d33c 9acd c93c
00000080: 5aa6 773d b20f babe 58aa cf3c f05a 8a3c
00000090: 358e 5c3d edca a6be 0adb 3c3d 0f50 043d
000000a0: 097b 04bf 7b87 5a3d e98f 3cbf c134 463b
000000b0: 963c 483d 5af2 0dbf 3742 d03c 80de 603d
000000c0: 3538 3f3d bf54 263d 0e25 b6be edf8 953d
000000d0: f52a 813d 143a 353d f013 f43c e8a3 d73c
000000e0: f44a e3be f61a 063d 148b 693d d2ad 113d
000000f0: 24d5 743d f68c f3be bd1f 113d bd6d 67be
0.036560077 0.037530642 0.045364797 -0.42157122 -0.41245598 0.041458808 -0.2571257 -0.54081655
0.037761755 0.033980608 -0.45869392 0.04413068 0.005233408 0.046187755 0.036289327 0.017985296
0.035110116 -0.523231 0.025032798 0.031414937 0.030518984 -0.45387167 -0.48518184 0.046922166
0.040162276 0.025426362 0.034056325 0.022871895 0.05652661 0.025866458 0.025765222 0.024634171
0.06046138 -0.363401 0.02534978 0.016889066 0.053846557 -0.32576695 0.04610733 0.032302912
-0.51750237 0.05335186 -0.7365709 0.0030243846 0.048885904 -0.55447924 0.025422199 0.054899693
0.046684463 0.040608164 -0.35575145 0.073228694 0.063070215 0.04424484 0.029794663 0.026323274
-0.44393122 0.032740556 0.0570174 0.03556616 0.05977358 -0.47568482 0.03543066 -0.22600456

bn1.weight f4 [512]
00000000: 47e3 453f a298 603f 969f 4f3f c92a 553f
00000010: 76a0 5d3f 9490 5c3f b8bb 673f 96b5 723f
00000020: e86a 413f dbe9 4d3f 72df 5c3f b722 543f
00000030: a142 593f 1d19 643f 56db 633f 43b5 533f
00000040: 0dde 613f ca4b 5f3f 2207 473f 590e 773f
00000050: a8a3 743f 8213 663f f930 733f 7b4f 573f
00000060: 5a34 503f b62f 5b3f b10e 403f fe27 803f
00000070: 2f12 533f a81c 623f dd45 593f aa9e 583f
00000080: 3ffb 6a3f 367d 713f 0c68 683f 9351 7b3f
00000090: bb90 7f3f 764e 5b3f 6f46 583f 2b19 623f
000000a0: a55b 683f c91a 643f 4729 5d3f a093 4b3f
000000b0: 080a 523f ff74 543f 6fb2 783f a8a2 6c3f
000000c0: 2776 593f 0a7c 4b3f c456 7a3f dac1 503f
000000d0: a818 5d3f d745 443f 8483 523f 489a 593f
000000e0: bb4a 653f a0b4 5a3f 27a7 483f 2f2c 793f
000000f0: 42ba 593f 62bf 733f e63a 593f 042e 4b3f
00000100: a3d7 653f 54ec 573f a7ba 5f3f 9c68 683f
00000110: b6d9 383f d070 633f 98f3 5c3f c0ef 4c3f
00000120: 45f2 423f b5ec 4d3f 9784 4c3f 52f1 583f
00000130: a542 603f 156f 593f e6ca 603f 4006 6a3f
00000140: 25f1 523f fdeb 503f f26c 3d3f 9e1e 4e3f
00000150: 6890 683f 8ac2 5e3f c3aa 5e3f 31e1 773f
00000160: 6b00 573f 5cc2 503f 25d0 703f 0424 4f3f
00000170: fcdc 3f3f d5ff 703f aed8 653f 9dbf 5d3f
00000180: 354c 723f b935 4a3f b459 4e3f 25bc 443f
00000190: fd13 473f 4740 813f dd7b 6a3f 3df5 783f
000001a0: a2a0 623f ca3e 613f 34d1 663f b1b0 4d3f
000001b0: 9e2b 5c3f 17ad 693f 4309 5f3f 12d2 543f
000001c0: 5cf9 6c3f 12e9 5d3f 5eaa 773f ebf7 503f
000001d0: 7155 653f 5ba4 6b3f ba45 4b3f 6839 603f
000001e0: 4293 5f3f 438a 513f e955 663f 2cdd 533f
000001f0: fb70 643f 5d06 6b3f 0ac2 5f3f f0e5 5e3f
00000200: b557 563f 8e82 5e3f 5b58 673f 96a8 5c3f
00000210: d258 613f f001 563f 3810 463f 7a12 4e3f
00000220: 5234 373f 6c60 623f 48c3 623f 3830 783f
00000230: a4ee 5b3f d357 483f 0249 4c3f 2ec8 773f
00000240: 579a 593f 1be7 613f 38c5 6b3f e2b8 4d3f
00000250: 0d6a 6a3f 08a1 753f 6bf9 4f3f cf0d 693f
00000260: 1ad8 5c3f 5789 563f cea7 6e3f 1457 463f
00000270: 98c2 463f 18ae 503f c85d 433f ac86 663f
00000280: 71fb 653f 3c2b 553f f937 843f 26e5 693f
00000290: 318d 5f3f 31d3 513f f842 673f 3831 753f
000002a0: 3bd2 5b3f 29d1 563f d15e 4d3f 98e5 673f
000002b0: e081 543f 2355 4b3f 15d8 4d3f f32b 533f
000002c0: 9701 4f3f d3d1 623f 73ec 383f 2c1e 5a3f
000002d0: 067f 403f 1e66 5a3f e9e1 5a3f a2ad 7b3f
000002e0: 14f9 653f 8dd1 703f e47b 6c3f 7341 3e3f
000002f0: 0440 4f3f 4da8 5b3f fffd 5e3f 030c 6a3f
00000300: 2ba8 563f 5978 6c3f 16a8 593f b1d9 4d3f
00000310: ad03 533f 86d3 4d3f 01ec 733f 2605 3a3f
00000320: 8416 703f 8395 5f3f 05db 6c3f ccf1 563f
00000330: 9cd3 553f fff0 6b3f a650 563f 419d 7c3f
00000340: 9b2a 5c3f 974a 4e3f 105a 413f 2bd7 613f
00000350: b22e 6b3f c849 733f 544e 663f 1c59 6d3f
00000360: 0d44 5e3f 4e0d 593f 8e33 723f 22a9 6c3f
00000370: d76b 513f f22b 6c3f 584a 793f c3db 733f
00000380: 9b1c 643f b8d8 4c3f 8ebb 663f 5837 683f
00000390: 87df 6e3f 8034 5b3f 2620 6a3f ba8f 5b3f
000003a0: c470 3a3f 8d68 533f cd0e 4a3f e91d 463f
000003b0: 5b28 6a3f 6dc2 723f dcde 423f 0819 593f
000003c0: ca50 793f a384 613f 7e28 593f 579d 523f
000003d0: 07db 603f c1e5 543f 1b49 6c3f 7b98 693f
000003e0: 9643 6d3f 9451 6a3f 363a 383f 7797 583f
000003f0: 475d 413f bc34 763f c3ff 4e3f 48c9 653f
0.7729992 0.877329 0.81102884 0.8326841 0.8657297 0.8615811 0.9052081 0.9480833
0.7555375 0.8043496 0.8627845 0.8286547 0.8486729 0.8910082 0.89006555 0.8269846
0.8822945 0.8722502 0.7774526 0.9650627 0.9556222 0.89873517 0.949966 0.8410565
0.8132988 0.85619676 0.7502242 1.0012205 0.8244962 0.88324976 0.8487223 0.846171
0.9178962 0.9433168 0.9078376 0.9817135 0.99830216 0.85666597 0.84482473 0.88319653
0.9076484 0.8910337 0.8639111 0.7952213 0.82046556 0.8299102 0.9714727 0.92435694
0.8494591 0.79486144 0.97788644 0.81545794 0.8636575 0.7666907 0.82231927 0.8500104
0.89567155 0.8543186 0.78380054 0.97333044 0.8504983 0.952139 0.84855497 0.7936709
0.8978216 0.84344983 0.87394184 0.9078462 0.722072 0.88844013 0.86309195 0.8005333
0.76150924 0.8043931 0.79889816 0.84743226 0.8760169 0.8493512 0.878096 0.91415787
0.8239921 0.8161009 0.7399436 0.8051547 0.90845346 0.87015593 0.8697931 0.9682799
0.8398501 0.8154657 0.94067603 0.8091433 0.7494657 0.9414037 0.8978375 0.86620504
0.9464753 0.78988224 0.80605626 0.76849586 0.77764875 1.0097741 0.9159525 0.97249204
0.88526356 0.87986434 0.9016297 0.80347735 0.86004055 0.9127974 0.8712351 0.8313304
0.9256799 0.8668376 0.96744335 0.8162829 0.895835 0.9204766 0.7940327 0.87587595
0.8733407 0.81851596 0.8997484 0.82759356 0.89234895 0.91806585 0.87405455 0.87069607
0.8372758 0.8691796 0.90369195 0.8619474 0.88026154 0.83596706 0.773685 0.80496943
0.7156421 0.8842838 0.88579226 0.96948576 0.8591101 0.7825901 0.797989 0.96789825
0.8500113 0.88243264 0.92097807 0.80360234 0.9156807 0.9594884 0.81239957 0.91036695
0.86267245 0.83803314 0.932248 0.7747662 0.77640676 0.81515646 0.76314974 0.9004924
0.89836794 0.83269095 1.0329581 0.9136528 0.87324816 0.8196288 0.9033656 0.95778227
0.8586766 0.83912903 0.80222803 0.9058471 0.83010674 0.79426783 0.8040784 0.82488936
0.808618 0.88601416 0.7223579 0.8520229 0.7519382 0.8531207 0.8550096 0.9831182
0.8983319 0.9406975 0.9237654 0.7431862 0.80957055 0.8580368 0.8710632 0.9142458
0.83850354 0.92371136 0.85022104 0.80410296 0.82427484 0.80400884 0.9528199 0.72664106
0.93784356 0.8733751 0.925217 0.839627 0.83526015 0.92164606 0.8371681 0.9867745
0.8600251 0.80582565 0.7552805 0.88218945 0.91868126 0.95034456 0.8996327 0.92714095
0.8682259 0.84785926 0.94609916 0.92445576 0.81805176 0.92254555 0.97379065 0.95257205
0.8910615 0.80018187 0.90129936 0.9070945 0.93309826 0.85626984 0.91455305 0.85766184
0.72828317 0.82581407 0.78928834 0.7738939 0.9146783 0.9482792 0.76121306 0.8480382
0.973889 0.8809301 0.8482741 0.8227133 0.8783421 0.83163077 0.9229905 0.9124829
0.9268125 0.9153073 0.7196382 0.84606117 0.75532955 0.96174216 0.8085901 0.89760256
